agent_code/lisa_coin_agent_torch/dqn-model.pth (torch, 73756 bytes, 6 tensors)

fc1.weight f4 [128, 3]
0	0x3ec0fc07	0.37692282
1	0xbf2e9451	-0.6819506
2	0xbe9b2bf1	-0.30306962
3	0x3cb3be4a	0.021941323
4	0x3ea6d354	0.32583106
5	0xbeefb53d	-0.4681796
6	0xbf0042cf	-0.5010194
7	0xbe3c06e3	-0.18362002
8	0xbe054594	-0.13014823
9	0xbed7d15b	-0.42151913
10	0xbeed8001	-0.46386722
11	0xbeb8f72a	-0.3612607
12	0x3f296855	0.66174823
13	0xbedde786	-0.433407
14	0xbe2601cf	-0.16211627
15	0xbd22b3ed	-0.03972237
16	0xbe2e4c98	-0.17021406
17	0xbef0460e	-0.46928447
18	0x3e1f210f	0.15539955
19	0x3eac23c3	0.33621034
20	0x3ea1d9cb	0.31611475
21	0x3eb6fcb8	0.35739684
22	0x3f0c49f9	0.54800373
23	0xbeeacf4d	-0.45861283
24	0x3da29643	0.079388164
25	0xbbdcb93f	-0.0067359502
26	0x3e216717	0.15761982
27	0x3e3981bf	0.181159
28	0xbe4b5059	-0.19854869
29	0xbe41be37	-0.18920217
30	0xbd3f3254	-0.046678856
31	0x3d690f7d	0.056899536
32	0xbe102ea8	-0.14080298
33	0x3e106404	0.14100653
34	0xbe637d48	-0.2221576
35	0xbed7dbf4	-0.42159998
36	0x3f03faf5	0.51554805
37	0xbe3604b2	-0.17775229
38	0xbe715e09	-0.23571028
39	0x3e9d5a13	0.30732784
40	0xbe813ff0	-0.25244093
41	0xbe54f993	-0.2079833
42	0x3e158195	0.14600213
43	0x3ed74c50	0.4205041
44	0xbebe56ad	-0.37175503
45	0xbe5d4a0a	-0.21610275
46	0x3deb0c54	0.11476961
47	0xbc6aff82	-0.014343144
48	0x3e9bb5dc	0.30412185
49	0x3e786cd8	0.2426027
50	0xbe4a3fee	-0.1975095
51	0x3edc6996	0.43049306
52	0x3de423a5	0.11139611
53	0xbe86e8a6	-0.26349372
54	0xbd24b3a6	-0.04021039
55	0x3df97b2e	0.12181698
56	0xbe433621	-0.19063617
57	0x3da86873	0.08223047
58	0x3e642e02	0.22283176
59	0xbe50ccf6	-0.20390686
60	0x3f1aa2dc	0.60404754
61	0xbf057377	-0.5212931
62	0xbe96173f	-0.2931461
63	0xbf0add81	-0.5424424
64	0x3f0a097b	0.53920716
65	0xbe8a0059	-0.2695339
66	0x3ea9713d	0.33094206
67	0x3ec0ddca	0.37669212
68	0xbe4278f9	-0.1899146
69	0x3ec378f6	0.38178223
70	0xbe8a360c	-0.2699436
71	0x3ee38b8e	0.4444241
72	0x3d0db7a1	0.03459895
73	0xbd03c5a1	-0.032170895
74	0xbcde0d4e	-0.027105954
75	0xbe1e6844	-0.15469462
76	0x3e9918d7	0.29901764
77	0xbd7360e3	-0.05941857
78	0xbef4b732	-0.47796017
79	0x3f1e5f70	0.61864376
80	0xbe9642d3	-0.29347858
81	0x3f12599c	0.57167983
82	0xbf061660	-0.5237789
83	0xbf13bcac	-0.57709765
84	0xbe8f6518	-0.28006816
85	0x3dc45950	0.095873475
86	0xbf015473	-0.50519484
87	0x3d9a82de	0.07544492
88	0x3d804438	0.06263012
89	0x3e194289	0.14966787
90	0xbd7589fa	-0.059946038
91	0x3e10ed6e	0.14153072
92	0x3d31e26a	0.043428816
93	0x3f059897	0.5218596
94	0x3d8b678c	0.068068594
95	0xbf06321f	-0.5242023
96	0x3db8ab1d	0.09017012
97	0xbebb110e	-0.3653645
98	0xbe69443b	-0.22779934
99	0x3e2f0c94	0.17094642
100	0xbeb4c76e	-0.35308403
101	0x3ed3c9e4	0.41364968
102	0x3e697b83	0.22801022
103	0x3e952b94	0.2913481
104	0xbe94a3f4	-0.29031336
105	0xbf03b741	-0.514515
106	0xbf178915	-0.59193546
107	0xbecf7894	-0.4052168
108	0x3ef129ec	0.47102296
109	0x3e68506b	0.22686927
110	0xbe75065d	-0.23928209
111	0x3f028eb4	0.50999
112	0x3f1c4932	0.6104919
113	0xbee26c1c	-0.44223106
114	0x3da02368	0.07819253
115	0xbe6aebc7	-0.22941504
116	0xbe4290cf	-0.19000553
117	0xbf113053	-0.5671436
118	0x3f2c2dcd	0.67257386
119	0xbf003293	-0.5007717
120	0x3ee3ba66	0.44478148
121	0xbee890a9	-0.45422867
122	0xbed54125	-0.41651264
123	0xbdb4fe0b	-0.08837517
124	0x3ce64f1e	0.028113898
125	0xbe058f0e	-0.13042852
126	0xbdc283d6	-0.09497802
127	0x3dead0af	0.114655845
128	0xbe6c852c	-0.23097676
129	0xbd91b9c6	-0.071155116
130	0x3de31173	0.110873125
131	0xbec1f0c0	-0.3787899
132	0xbe88fc97	-0.2675521
133	0x3ec8b8ba	0.39203435
134	0xbed216f5	-0.4103314
135	0x3b258100	0.0025253892
136	0x3ed2a3f2	0.41140705
137	0xbef045d5	-0.46928278
138	0x3e7558b0	0.23959613
139	0xbcbfdefb	-0.023421755
140	0xbd7166cf	-0.058935937
141	0xbe813487	-0.25235388
142	0x3e8e0d8b	0.27744707
143	0xbe7e764c	-0.24849814
144	0x3e1a1631	0.15047528
145	0xbd5d6a55	-0.054056484
146	0x3d178acf	0.036997613
147	0xbe5f27d0	-0.21792531
148	0xbed9614c	-0.42457044
149	0xbf020094	-0.5078213
150	0x3d23ff2c	0.040038273
151	0x3ce6ef2b	0.028190216
152	0xbdca02fd	-0.09863851
153	0x3d17ed94	0.037091807
154	0xbea7b2ba	-0.32753545
155	0xbe214e76	-0.15752587
156	0x3e91f279	0.28505304
157	0x3ef8ea09	0.48616055
158	0xbefb9b84	-0.49142087
159	0xbf074562	-0.52840245
160	0xbe896ba3	-0.26839933
161	0xbf0030af	-0.50074285
162	0xbd2f0cb0	-0.04273671
163	0x3dc71e0b	0.09722527
164	0xbd9c9f4c	-0.07647571
165	0x3deb0011	0.11474622
166	0x3f00ce01	0.50314337
167	0xbeb11e45	-0.34593406
168	0x3edd6b88	0.43246102
169	0xbedf2e08	-0.43589807
170	0xbea67c66	-0.32516783
171	0x3e443bfb	0.19163506
172	0x3e62e5a6	0.22157916
173	0xbeaa31a2	-0.33240992
174	0x3ecda13c	0.40162075
175	0x3ed135c5	0.40861335
176	0xbe92e0f7	-0.2868726
177	0x3edb2dca	0.42808372
178	0xbe093cd3	-0.13402109
179	0xbe7e0d6e	-0.2480981
180	0x3eda4530	0.4263091
181	0xbd3092ff	-0.043108936
182	0xbd5dd389	-0.054156814
183	0xbe0efd32	-0.13963774
184	0x3e8c6850	0.27423334
185	0x3e0ef9c6	0.13962469
186	0xbe8f5924	-0.27997696
187	0x3c13e094	0.009025712
188	0xbd1585ba	-0.036504485
189	0x3f0597b3	0.521846
190	0x3ea6b5fd	0.3256072
191	0xbea5af14	-0.32360137
192	0x3ecd4abc	0.4009608
193	0x3e1e2d34	0.15446931
194	0xbe50f553	-0.20406084
195	0x3e590d0b	0.21196382
196	0xbe5da646	-0.2164546
197	0xbe108aad	-0.141154
198	0x3f03125f	0.5119991
199	0xbeaacb5f	-0.33358285
200	0xbd4ff35a	-0.050769188
201	0x3e8da220	0.27662754
202	0x3e9671cc	0.29383695
203	0xbe8f05ab	-0.27934012
204	0x3e1956f0	0.1497457
205	0xbc682bf2	-0.014170634
206	0xbc5e9aca	-0.013586709
207	0x3e3115bd	0.17293449
208	0xbd5b6982	-0.053567417
209	0x3d52f5c9	0.05150393
210	0xbebf254b	-0.3733314
211	0x3eb697b1	0.35662606
212	0xbe812398	-0.25222468
213	0x3d34783f	0.044059988
214	0x3c2fb7cb	0.010724972
215	0xbdc8b0aa	-0.09799321
216	0x3e1484e4	0.14503819
217	0x3e8404dc	0.25784957
218	0xbeec28b6	-0.4612481
219	0xbe23075d	-0.15920778
220	0xbc9530da	-0.01821177
221	0x3dfcba6f	0.12340247
222	0xbd045c30	-0.03231448
223	0x3c557140	0.013027489
224	0xbd6f6460	-0.058445334
225	0xbe34736b	-0.17622153
226	0x3da787f7	0.0818023
227	0xbe566618	-0.20937383
228	0x3eb71ef5	0.35765806
229	0x3ee40182	0.445324
230	0xbe717455	-0.23579533
231	0x3c6545cd	0.013993693
232	0xbe2cc390	-0.16871476
233	0xbe2846d8	-0.16433275
234	0xbce9e003	-0.0285492
235	0x3d32073d	0.043463934
236	0xbd0e7f51	-0.034789387
237	0xbe6d1adf	-0.23154782
238	0x3e485a4c	0.19565696
239	0xbe569088	-0.20953572
240	0x3e1f4ecc	0.15557402
241	0xbee6f233	-0.45106658
242	0xbf05a7c3	-0.5220911
243	0x3f0d6d56	0.5524496
244	0xbf0ea480	-0.5571976
245	0xbf0f7d25	-0.5605033
246	0xbe7238cb	-0.23654477
247	0xbe68758d	-0.22701092
248	0xbe2fee62	-0.1718078
249	0x3e34bc5c	0.17649978
250	0x3d137af0	0.036005914
251	0xbec084f9	-0.3760145
252	0xbef7c8bf	-0.48395345
253	0x3e8a870e	0.27056164
254	0xbef5877d	-0.47954932
255	0x3d31fbbd	0.043452967

fc1.bias f4 [128]
0	0xbe62b1ec	-0.22138184
1	0x3ecd4475	0.4009129
2	0xbe1cadd6	-0.15300688
3	0x3e2fe3cb	0.1717674
4	0xbd5e5f23	-0.05428995
5	0x3ec3c3b6	0.38235253
6	0xbe6d9c87	-0.23204242
7	0x3ef43220	0.47694492
8	0xbe08b797	-0.13351284
9	0xbe4570e6	-0.19281349
10	0xbc1ac808	-0.009447105
11	0xbddf8408	-0.10913855
12	0xbee52eda	-0.44762307
13	0x3e63bb3c	0.22239393
14	0xbf069bb6	-0.52581346
15	0x3d891953	0.06694283
16	0xbc3206c4	-0.010865871
17	0x3e8879ec	0.2665552
18	0x3e523937	0.20529638
19	0xbf1ad330	-0.60478497
20	0xbdbb5c97	-0.091485195
21	0xbe6b02b1	-0.22950245
22	0xbe48fe3e	-0.19628236
23	0xbd18be58	-0.0372909
24	0xbe18fe21	-0.14940692
25	0x3dce7fe9	0.10082991
26	0xbec0c7cb	-0.3765243
27	0xbefaa6f1	-0.4895549
28	0x3e49e017	0.1971439
29	0xbeb6e639	-0.3572252
30	0x3e19a3fe	0.15003964
31	0xbed496c5	-0.41521278
32	0xbf096c17	-0.53680557
33	0xbe744710	-0.23855233
34	0xbd3ea51f	-0.04654419
35	0x3e464d9e	0.19365546
36	0x3e966d6b	0.29380354
37	0x3ecf0551	0.40433744
38	0xbce8aed9	-0.028403686
39	0x3e882551	0.2659097
40	0x3f2ef5e0	0.68343925
41	0xbe3f77e3	-0.18698077
42	0x3e888d33	0.26670226
43	0x3f1ca4c1	0.61188895
44	0xbec69249	-0.38783482
45	0xbd2effb0	-0.04272431
46	0xbb0b10d5	-0.002121975
47	0xbf1f7988	-0.62294817
48	0xbe177e5c	-0.14794296
49	0xbc4d3138	-0.012523942
50	0xba45f795	-0.0007551846
51	0x3e7e2043	0.24816994
52	0x3f11b05d	0.56909734
53	0x3bea12f9	0.007143375
54	0xbea64eb7	-0.3248193
55	0x3e50daac	0.20395917
56	0x3eb5cde5	0.35508648
57	0x3d5306e9	0.051520262
58	0x3e93bd01	0.28855136
59	0x3e1f7e51	0.1557553
60	0xbd4ce383	-0.05002166
61	0x3b5f25c8	0.003404962
62	0x3c5c6d60	0.013453811
63	0xbc7e3f8f	-0.015518083
64	0xbdcfa817	-0.101394825
65	0x3df51545	0.119669475
66	0xbe62b389	-0.221388
67	0xbecb5e2a	-0.3972028
68	0x3d471802	0.04860688
69	0xbf58b567	-0.846518
70	0x3edf9486	0.43668002
71	0x3e0b0715	0.1357692
72	0xbc70e6b0	-0.014703438
73	0xbf498003	-0.78710955
74	0xbdbce0a8	-0.09222537
75	0x3e703866	0.23459014
76	0xbc4dc84c	-0.0125599615
77	0x3d855a60	0.06511378
78	0xbea9b669	-0.3314698
79	0xbe6f53a1	-0.23371746
80	0xbdd9fb00	-0.106435776
81	0xbeb025b0	-0.34403753
82	0x3e141472	0.14460924
83	0xbf0e5e37	-0.5561251
84	0x3ee84ada	0.45369607
85	0xbed32e4c	-0.4124626
86	0xbe1af60a	-0.15132919
87	0x3dc20126	0.09472875
88	0xbebb6479	-0.36600092
89	0xbf033933	-0.51259154
90	0x3ee628eb	0.44953093
91	0xbed662fc	-0.41872394
92	0xbf09c44d	-0.53815156
93	0x3d80c703	0.062879585
94	0x3e8a07ed	0.26959172
95	0xbe976ea2	-0.29576594
96	0xbf4a4ac7	-0.7902035
97	0x3f019c3d	0.50629026
98	0x3f12a938	0.5728946
99	0x3ce0a8d2	0.02742425
100	0xbf697cb6	-0.9120592
101	0xbcd0c42b	-0.025484165
102	0x3ed4f26f	0.41591212
103	0x3f082124	0.5317557
104	0x3ddfd52e	0.10929333
105	0xbf1188cc	-0.5684936
106	0x3ea6bd7e	0.32566446
107	0xbd2ae6bb	-0.041723948
108	0x3ed82d39	0.42222002
109	0x3c54c2f5	0.0129859345
110	0xbeb273c0	-0.34853935
111	0x3eaa41c7	0.3325331
112	0xbe82452c	-0.254434
113	0xbd885ae0	-0.06657958
114	0xbd95b01c	-0.07308981
115	0xbd69ed35	-0.057110984
116	0xbf044138	-0.51662016
117	0x3edba18b	0.42896685
118	0x3d46ab01	0.048502926
119	0x3d892a78	0.066975534
120	0xbf051c13	-0.5199596
121	0xbf08d3ff	-0.5344848
122	0xbec901ac	-0.39259088
123	0xbf0d1a23	-0.55118006
124	0xbef1b9ac	-0.4721197
125	0x3e7f48dc	0.24930137
126	0xbe539f71	-0.20666291
127	0xbedce2ff	-0.43141934

fc2.weight f4 [128, 128]
0	0xbd9765a7	-0.073924355
1	0x3d5794aa	0.05263201
2	0xbdfc3c92	-0.1231624
3	0xbd5a7667	-0.053335574
4	0xbc7b6667	-0.015344239
5	0xbd8b58a1	-0.06804014
6	0x3c2faf67	0.0107229715
7	0xbe5db151	-0.21649672
8	0xbdb5ee3e	-0.08883332
9	0xbb83931f	-0.004015341
10	0x3c61beac	0.01377837
11	0xbda5f9f6	-0.08104317
12	0x3cdee0cb	0.027206799
13	0xbe09288a	-0.1339437
14	0x3c808478	0.015688166
15	0xbde1b729	-0.11021263
16	0xbce0427e	-0.027375456
17	0xbded9520	-0.11600709
18	0x3cb0b6c1	0.021571519
19	0xbad9d2c0	-0.0016618595
20	0x3cc9d430	0.024637312
21	0xbd7bc932	-0.06147117
22	0xbdf60ab8	-0.12013763
23	0xbd0ba02a	-0.03408829
24	0x3cd4b579	0.02596544
25	0xbd7d0151	-0.061768834
26	0xbc3ce719	-0.011529707
27	0x3d3c6f5e	0.046004646
28	0xbb9091d0	-0.0044119135
29	0x3c5c847f	0.013459324
30	0xbe2d15a8	-0.16902792
31	0xbd655455	-0.05598863
32	0xbd855855	-0.065109886
33	0x3c9bd28a	0.019021291
34	0xbe065857	-0.13119636
35	0xbd0e2071	-0.034698907
36	0xbdebe975	-0.11519138
37	0xbd281ae5	-0.041041274
38	0xbd31ad18	-0.043377966
39	0xbc4fa92e	-0.012674613
40	0xbdd398cf	-0.1033188
41	0xbdaa65b0	-0.083201766
42	0xbdde5f00	-0.108579636
43	0xbd03693f	-0.032082792
44	0x3d234110	0.03985697
45	0xbda0589c	-0.07829401
46	0xbbb4785b	-0.0055075116
47	0x3c4d3063	0.012523743
48	0xbe09d64a	-0.13460651
49	0x3ca7801c	0.02044683
50	0xbb795d81	-0.0038050117
51	0xbd14cccf	-0.036328133
52	0xbdb2e32b	-0.08734735
53	0x3cb857e4	0.022502847
54	0xbd62dd4c	-0.055386826
55	0xbc8a57cc	-0.016887568
56	0xbadbe7c0	-0.0016777441
57	0x3c625793	0.013814825
58	0x3d397ce4	0.04528512
59	0xbd13cc13	-0.036083292
60	0x3caf1dc1	0.021376492
61	0x3ccc9abf	0.024976132
62	0xbd3e047c	-0.046390995
63	0x3cda3eb0	0.02664122
64	0xbdcef16f	-0.101046436
65	0x3d25c66d	0.040472437
66	0x3cb7df7a	0.02244543
67	0xbd465bbc	-0.04842733
68	0xbb7e5009	-0.003880503
69	0x3cfc118d	0.030770088
70	0x3d90aeee	0.07064615
71	0xbe0cb2d2	-0.1374009
72	0x3db133f3	0.08652487
73	0xbc53452c	-0.01289491
74	0xbd88d6fb	-0.06681629
75	0xbe2c8ff7	-0.16851793
76	0xbe11cb29	-0.14237656
77	0xbbb1ed14	-0.0054298732
78	0x3ca0553b	0.019571891
79	0x3d0e513f	0.03474545
80	0xbd4170c6	-0.04722669
81	0x3dab8247	0.08374458
82	0xbdcd9bc8	-0.100394785
83	0xbd3cc342	-0.04608465
84	0x3aae8c61	0.0013316983
85	0x3c4e6c7f	0.01259911
86	0x3c8ffea0	0.01757747
87	0xbe03867f	-0.12844275
88	0xbe195ec6	-0.1497756
89	0xbcdc84f6	-0.02691887
90	0xbb8c622d	-0.0042841644
91	0xbcff2993	-0.031147754
92	0xbd1d6cab	-0.038433712
93	0xbd1b14a8	-0.037861496
94	0xbc93d1bd	-0.018044347
95	0xbd50cf51	-0.050978962
96	0xbdd6a67b	-0.104809724
97	0xbd83fdca	-0.06444891
98	0xbdd69442	-0.10477497
99	0xbda5cead	-0.08096061
100	0x3d0ca63f	0.034338232
101	0xbdc1b61a	-0.09458561
102	0xbd50d20d	-0.05098157
103	0x3da48bb5	0.080344595
104	0xbe0b70e2	-0.1361728
105	0xbb007c5c	-0.0019605374
106	0xbd57d470	-0.05269283
107	0xbda99b81	-0.08281613
108	0xbd87af84	-0.06625274
109	0xbd6fa5bf	-0.058507677
110	0xbd1a6a71	-0.037699167
111	0xbd6329a5	-0.055459637
112	0xbb0918e5	-0.002091938
113	0x3d9637e6	0.073348805
114	0xbdcb1300	-0.09915733
115	0xbcb5e84d	-0.022205496
116	0xbd047168	-0.032334715
117	0xbdd07135	-0.101778425
118	0xbe0f079a	-0.13967744
119	0xbde5b432	-0.1121601
120	0x3d8433af	0.0645517
121	0xbb563ea5	-0.0032691148
122	0x3b43d389	0.0029880723
123	0x3d8d7817	0.06907671
124	0xbdb5ade4	-0.08871058
125	0xbe04bb02	-0.12961963
126	0xbd2ff5b0	-0.042958915
127	0xbd42651f	-0.047459718
128	0xbe01ee6f	-0.12688611
129	0x3e35e864	0.17764431
130	0x3b852b06	0.0040639667
131	0x3da6a0a7	0.08136111
132	0xbd01b64d	-0.031667996
133	0x3d913dd1	0.07091869
134	0xbd234cc5	-0.039868135
135	0x3ca1df37	0.019759757
136	0xbda8263a	-0.08210416
137	0xbda7c209	-0.08191306
138	0xbda5cc25	-0.08095578
139	0x3d08d464	0.033405676
140	0xbd2d6b69	-0.042338762
141	0x3c5099cb	0.01273198
142	0xbdba395d	-0.090929724
143	0x3d0ac9d4	0.033883885
144	0xbd3dce3d	-0.046339262
145	0xbc00bcda	-0.007857526
146	0xbd572de2	-0.05253399
147	0xbdc082a8	-0.09399921
148	0xbe2528d6	-0.16128859
149	0xbd65dae9	-0.056116972
150	0xbd9b3968	-0.07579309
151	0xbe39aee3	-0.1813312
152	0xbe0c0b78	-0.1367625
153	0x3ba86d40	0.0051399767
154	0xbd6e11e8	-0.058122545
155	0xbc88a318	-0.016679332
156	0x3e088c23	0.13334708
157	0xbdfd546a	-0.12369616
158	0xbd8bee19	-0.06832523
159	0xbb9db58a	-0.004812901
160	0xbd842d7a	-0.064539865
161	0xbe192a1c	-0.1495747
162	0x3d075bc3	0.033046495
163	0xbc741099	-0.014896535
164	0x3db58f22	0.08865191
165	0x3e075f8a	0.13220039
166	0x3c0be479	0.008538359
167	0x3d3de80c	0.046363875
168	0x39af8ce0	0.0003348356
169	0xbd97c5f5	-0.07410804
170	0x3d713392	0.058887072
171	0x3dc27641	0.094952114
172	0xbd9323e3	-0.07184579
173	0xbd73d782	-0.059531696
174	0xbdc1481c	-0.09437582
175	0xbd4da487	-0.050205734
176	0xbe0c8fb6	-0.13726696
177	0xbdc45e0c	-0.095882505
178	0x3ce12ea1	0.027488055
179	0x3d9bcf7f	0.07607936
180	0x3e0ac513	0.1355174
181	0xbb3c0b43	-0.0028693236
182	0x3d5f7316	0.054553114
183	0x3c91f922	0.017818991
184	0x3d88a55f	0.06672167
185	0xbd991248	-0.0747419
186	0x3db09ce1	0.08623672
187	0x3d80cad1	0.06288684
188	0xbdcf5140	-0.10122919
189	0xbc9b3429	-0.01894577
190	0xba4273b6	-0.0007417755
191	0x3d9b7225	0.07590131
192	0x3c0b5aae	0.008505506
193	0xbd784ee1	-0.0606221
194	0x3d993256	0.07480304
195	0x3da66253	0.081242226
196	0xbdc77c69	-0.09740526
197	0xbc2a8cf6	-0.010409584
198	0x3e0b3bd2	0.13597038
199	0xbdebfd81	-0.115229614
200	0xbdab00c0	-0.083497524
201	0x3bfc87f9	0.007706639
202	0x3c94d430	0.018167585
203	0x3baa932c	0.0052055325
204	0x3d3925be	0.04520201
205	0xbd722de4	-0.059125796
206	0xbcf29066	-0.02960987
207	0xbd0a4b78	-0.03376338
208	0xbc681b68	-0.01416669
209	0xbd858320	-0.06519151
210	0xbd123630	-0.03569621
211	0x3c486618	0.012231372
212	0x3e0fcdd9	0.14043368
213	0xbe08eb1f	-0.13370942
214	0xbdee0395	-0.11621777
215	0xbd56ddf2	-0.052457757
216	0xbc72c354	-0.014817078
217	0xbdc594a8	-0.096474946
218	0x3d9a3dd8	0.07531327
219	0xbdbda4d3	-0.09259953
220	0xbd3024d5	-0.043003876
221	0xbd3faede	-0.046797626
222	0x3d7a759d	0.06114732
223	0x3b70dee0	0.0036753938
224	0xbdb6a527	-0.08918219
225	0x3d377d69	0.044797335
226	0x3d1f42c7	0.038882043
227	0x3d984a72	0.07436074
228	0xbd00b0f4	-0.031418756
229	0x3d0329c3	0.03202225
230	0x3dc425f1	0.09577549
231	0x3e85b043	0.2611104
232	0xbd3942c9	-0.045229707
233	0xbe182160	-0.14856482
234	0x3d5c5faa	0.05380217
235	0xbdd34a51	-0.10316909
236	0x3cf40ad3	0.029790318
237	0x3d83580b	0.06413277
238	0x3dd50ede	0.10403226
239	0x3e3e71b1	0.18598057
240	0xbc9932b9	-0.018700944
241	0xbba147c5	-0.0049218857
242	0x3b0ad44d	0.002118367
243	0xbde8bab3	-0.11363735
244	0x3cb9a227	0.022660328
245	0x3d971db0	0.07378709
246	0x3c1ec3c0	0.009690225
247	0xbd9468f6	-0.07246582
248	0x3d83d701	0.06437493
249	0xbd8bae5d	-0.068203665
250	0xbe3fbe79	-0.18725003
251	0xbd765939	-0.060143683
252	0xbe37c7c9	-0.17947306
253	0xbde52e57	-0.11190479
254	0xbde4a8d1	-0.11165012
255	0xbd8bdbb5	-0.06829015

fc2.bias f4 [128]
0	0xbd349bb2	-0.044093795
1	0x3cff91c4	0.031197436
2	0xbdc64e42	-0.09682895
3	0x3d201eff	0.03909206
4	0xbd2aae34	-0.04167004
5	0xbdb92ab2	-0.090413466
6	0xbd87fffd	-0.06640623
7	0x3d771bac	0.060329124
8	0xbe32b8f0	-0.1745336
9	0x3d0f76e1	0.03502548
10	0xbda5ded3	-0.08099141
11	0xbdb6bbcd	-0.08922539
12	0xbb70b7b5	-0.0036730592
13	0x3ce6d4d6	0.02817766
14	0x3d1beddb	0.038068634
15	0xbe027f18	-0.12743795
16	0xbd8f1e58	-0.069882095
17	0x3d85f065	0.06539992
18	0xbc8d069a	-0.017215062
19	0x3c30d070	0.010791883
20	0x3e099a8d	0.13437863
21	0x3cadc763	0.021213239
22	0xbddbca8b	-0.107319914
23	0x3c4429f8	0.011972897
24	0xbcc1979f	-0.023631869
25	0x3cf80cb6	0.030279499
26	0xbdfc1c25	-0.12310056
27	0x3a052a82	0.00050798815
28	0x3ce5cb05	0.028050909
29	0xbdc07d3b	-0.09398886
30	0xbd93c4a7	-0.07215243
31	0x3c99f1b7	0.018792016
32	0x3cfe2201	0.031022074
33	0xbd7b424f	-0.061342534
34	0x3ac750e1	0.0015206599
35	0xbd810f86	-0.06301789
36	0x3e0280d5	0.12744458
37	0x3d454629	0.048162613
38	0xbdd65bc3	-0.10466721
39	0xbcd6e32a	-0.026231367
40	0xbc7aaece	-0.015300466
41	0xbda8274a	-0.08210619
42	0xbd638b23	-0.055552613
43	0xbe020df4	-0.12700635
44	0xbd1a7ae0	-0.03771484
45	0x3cbfaf47	0.023399008
46	0xbdb560da	-0.088563636
47	0xbda914df	-0.08255934
48	0x3d6e010b	0.058106463
49	0xbdb0f0ad	-0.08639655
50	0x3e019285	0.12653549
51	0xbd512552	-0.051060982
52	0xbe21d4b2	-0.15803793
53	0xbdb367d3	-0.08760037
54	0xbc2334ad	-0.009961289
55	0xbd14000a	-0.03613285
56	0xbd6978ac	-0.056999847
57	0x3b7d3d18	0.003864115
58	0x3c6ef2b1	0.014584229
59	0x3d91cc57	0.07119053
60	0x3c1c0bf0	0.0095243305
61	0xbe154727	-0.14577924
62	0x3c079735	0.008275797
63	0xbd796dd8	-0.06089577
64	0xbc89caa0	-0.016820252
65	0xbe0743c1	-0.1320944
66	0xbda01a95	-0.0781757
67	0xbd06216a	-0.03274671
68	0x3ccbe4b8	0.024889335
69	0xbdaee387	-0.08539491
70	0xbdbc3403	-0.09189608
71	0x3bfab989	0.007651512
72	0xba14134f	-0.0005648629
73	0xbd8c28ac	-0.06843695
74	0xbd8480a2	-0.06469847
75	0x3d56e54d	0.052464772
76	0xbdbb444e	-0.091438875
77	0xbd9107b5	-0.07081548
78	0xbe199884	-0.14999586
79	0xbd30b3e5	-0.04314031
80	0x3b51b015	0.0031995822
81	0x3c962021	0.018325867
82	0xbbb5fc26	-0.00555374
83	0xbbfef80a	-0.0077810334
84	0x3cf5ec8a	0.030020017
85	0xbd651792	-0.05593068
86	0xbdeb5dc4	-0.11492494
87	0x3cf6f416	0.030145686
88	0x3d6340cd	0.05548172
89	0xbd3e70e4	-0.04649438
90	0xbc0be4a6	-0.008538401
91	0xbddd353e	-0.10801171
92	0x3c283662	0.010266872
93	0xbdffa289	-0.12482173
94	0xbdc14eb6	-0.09438841
95	0xbdeb8171	-0.11499298
96	0xbdd091f1	-0.10184086
97	0xbd9356ad	-0.071942665
98	0xbd45cc5c	-0.048290595
99	0x3d278c4e	0.04090529
100	0xbc2d58ab	-0.010580222
101	0xbd3bbbca	-0.045833386
102	0x3bcb6741	0.006207377
103	0xbd2e4a12	-0.042551108
104	0x3d4abe0e	0.049497657
105	0xbe0ad53b	-0.13557903
106	0xbd981bfb	-0.07427212
107	0xbe2bce7f	-0.16777991
108	0xbd1081f0	-0.035280168
109	0xbde57220	-0.11203408
110	0xbdcddab6	-0.100514814
111	0xbe08233d	-0.13294692
112	0xbdcf10fd	-0.10110662
113	0xbcc5075c	-0.02405136
114	0x3cfb3cb9	0.030668603
115	0xbd81f2d6	-0.063451454
116	0xbd37dc2f	-0.044887718
117	0xbc8a9610	-0.016917259
118	0x3e404df2	0.18779734
119	0xbb1484df	-0.0022662205
120	0xbd301821	-0.04299176
121	0xbdade9f2	-0.08491887
122	0xbd1ff763	-0.039054286
123	0x3d7420c2	0.059601553
124	0xbda01cb4	-0.07817975
125	0x3c5e3308	0.0135619715
126	0xbc2ca956	-0.01053842
127	0xbd854ae2	-0.065084234

fc3.weight f4 [6, 128]
0	0xbc188fde	-0.009311644
1	0xbdc3d81e	-0.095627055
2	0x3da227ab	0.07917722
3	0x3ca85199	0.020546721
4	0x3d720e65	0.05909576
5	0xbc9e1c00	-0.01930046
6	0xbd5a12d0	-0.053240597
7	0x3c3c8eee	0.0115086865
8	0x3d9c757d	0.076395966
9	0xbcc3d5d1	-0.023905667
10	0x3cf0df02	0.029403213
11	0x3d83473a	0.0641007
12	0x3d1dc435	0.038517196
13	0xbd268974	-0.04065843
14	0x3c7541ab	0.01496927
15	0xbcdb3ca0	-0.026762307
16	0x3c8aefc8	0.01696004
17	0xbce2affb	-0.027671805
18	0x3d61d399	0.055133436
19	0x3d4a5491	0.049397055
20	0xbe51fccf	-0.20506595
21	0xbe9d2d82	-0.30698782
22	0xbc4b17e7	-0.0123958355
23	0x3d0e6259	0.03476176
24	0xba1cc250	-0.00059798826
25	0x3d2ae9d6	0.04172691
26	0x3b682ea6	0.0035428195
27	0xbdd5b2f0	-0.1043452
28	0xbd4dd7fd	-0.05025481
29	0xbc1f457e	-0.009721158
30	0xbd70c149	-0.05877808
31	0x3d036948	0.032082826
32	0xbd36c2a2	-0.04461921
33	0xbd3b04dd	-0.045658935
34	0xbd110379	-0.035403702
35	0x3c5d2d88	0.013499625
36	0x3d0f4b0c	0.03498368
37	0x3c42af39	0.011882597
38	0xbc2d8a8c	-0.010592114
39	0x3c2ab082	0.010418059
40	0xbd32a1d8	-0.043611377
41	0xbd002916	-0.031289183
42	0xbd402fa5	-0.046920437
43	0x3c7bfeb1	0.015380547
44	0x3b905914	0.00440515
45	0xbb10a35f	-0.0022070033
46	0x3dcd5447	0.1002584
47	0x3c7add33	0.015311527
48	0xbd0a29c4	-0.033731237
49	0x3d3c7866	0.04601326
50	0x3cb8096c	0.02246543
51	0xbdcc0644	-0.099621326
52	0x3dadaf7b	0.08480736
53	0xbd8141c2	-0.063113704
54	0xbcc052ac	-0.023476921
55	0xbd804afb	-0.062643014
56	0x3d0a5f0c	0.03378205
57	0x3c07f433	0.008297968
58	0xbd43420e	-0.047670417
59	0x3cf42697	0.029803557
60	0x3d85d4db	0.065347396
61	0x3c080166	0.008301115
62	0x3cecb03a	0.028892625
63	0xbd2ff00f	-0.042953547
64	0xbc9e932b	-0.019357285
65	0x3cb63e67	0.022246553
66	0xbb30a84f	-0.0026955788
67	0xbb9173f8	-0.0044388734
68	0x3ce22596	0.027605813
69	0x3c936eab	0.017997107
70	0x3d08f062	0.033432372
71	0xbca2ff8e	-0.019897249
72	0xbc326480	-0.010888219
73	0xba311d13	-0.00067563466
74	0x3abb1a4e	0.0014274807
75	0x3c8d5a64	0.017255016
76	0x3d1132c0	0.03544879
77	0x3b472d84	0.003039212
78	0x3ca8eee4	0.020621724
79	0xbd3c3817	-0.04595193
80	0x3c8e8005	0.017395029
81	0x3d280fa8	0.041030556
82	0xbcae5ca7	-0.021284414
83	0x3d60c4d3	0.054875206
84	0xbc30eb42	-0.010798277
85	0xbd8383a8	-0.06421596
86	0x3c2c96fd	0.010534045
87	0x3bf65e20	0.007518545
88	0x3d82bc62	0.063835874
89	0x3c7b28c1	0.015329541
90	0xbc8b3164	-0.016991325
91	0x3ca77a4b	0.020444056
92	0x3d3a7f95	0.045531828
93	0xbda25e73	-0.07928171
94	0xbcb1f0b0	-0.021721214
95	0xbc837e0b	-0.016051313
96	0x3d1912ac	0.037371323
97	0x3d83d3a4	0.064368516
98	0x3d43b236	0.047777377
99	0xbe4827b8	-0.19546402
100	0xbdab9bbd	-0.08379314
101	0xbd757670	-0.059927404
102	0xbbddbd47	-0.0067669484
103	0xbad3b280	-0.001615122
104	0x3d131868	0.035911947
105	0x3d485396	0.04890784
106	0x3d78db4c	0.060756013
107	0x3d048749	0.03235558
108	0xbbf36b45	-0.007428559
109	0x3d641d95	0.055692274
110	0xbc36e580	-0.0111631155
111	0xbd606fde	-0.054794185
112	0x3d74314c	0.059617326
113	0x3d4f160e	0.050558142
114	0x3d221a61	0.039575938
115	0xbd34400e	-0.0440064
116	0xbcbce888	-0.023060098
117	0xbdab6ac1	-0.08369971
118	0x3e9bf9e7	0.30464098
119	0xbcd06913	-0.025440728
120	0x3d6f8b16	0.058482252
121	0xbc1f949a	-0.009740019
122	0xbc981ba1	-0.018567862
123	0xbca6b5df	-0.020350395
124	0x3cd2eeaa	0.02574857
125	0x395990f0	0.00020748726
126	0x3bcda0d6	0.0062752767
127	0xbd97ddd9	-0.07415361
128	0x3c0052ff	0.007832288
129	0xbdcfd2eb	-0.10147651
130	0x3d903861	0.070420034
131	0x3c34bb10	0.011030927
132	0xbcf503d3	-0.02990905
133	0x3d1d4044	0.038391367
134	0x3b96b00a	0.004598622
135	0x3bd226b0	0.0064133033
136	0x3d3fa554	0.04678853
137	0x3cfcabc3	0.030843621
138	0xbc19c689	-0.009385713
139	0x3bb39af3	0.005481118
140	0xbd3ad5c8	-0.045614034
141	0xbc76584c	-0.0150357
142	0xbe4960ae	-0.19665787
143	0x3be6a336	0.007038499
144	0xbd3f932b	-0.04677121
145	0x3d63d5c9	0.055623803
146	0xbcd02c74	-0.025411822
147	0x3cf9cdd4	0.030493654
148	0xbe9644df	-0.2934942
149	0x3b48af26	0.0030621975
150	0xbdc664fd	-0.09687231
151	0x3b35513b	0.0027666825
152	0xbd51054b	-0.05103044
153	0xbd8b6c14	-0.06807724
154	0xbcecef82	-0.0289228
155	0xbdc58047	-0.096436076
156	0xba5ca7a3	-0.0008417314
157	0xbc38fbf8	-0.011290543
158	0xbc838390	-0.016053945
159	0x3b69851d	0.003563232
160	0x3ccdb3ea	0.025110204
161	0xbd200aee	-0.039072923
162	0x3b405d4e	0.002935249
163	0x3c06f6b2	0.008237528
164	0xbc86cf24	-0.016456194
165	0x3d69c35c	0.057071075
166	0xbd86292a	-0.0655082
167	0x3bfc9b40	0.007708937
168	0xbb20e480	-0.002455026
169	0xbc111670	-0.008855447
170	0xbd70f0de	-0.05882346
171	0x3cfe60dc	0.031052046
172	0x3d401296	0.046892725
173	0xbcb24fd2	-0.021766577
174	0x3d1b5b6b	0.03792898
175	0xbd9decfc	-0.07711217
176	0x3cb456c9	0.022014039
177	0xbd0443e8	-0.032291323
178	0x3a132885	0.0005613643
179	0x3cb051c5	0.021523366
180	0x3a7362b2	0.0009284421
181	0xbc184ab0	-0.009295151
182	0xbd54daec	-0.051966593
183	0x3da1702b	0.078827225
184	0xbc4df060	-0.012569517
185	0x3c92e35c	0.017930679
186	0xbd72d3e2	-0.0592841
187	0x3d868036	0.06567423
188	0xbca66513	-0.020311868
189	0xbdc59869	-0.096482106
190	0x3d3f1fd4	0.046661213
191	0x3d56e5e2	0.052465327
192	0xbd75c146	-0.059998773
193	0xbc04a458	-0.008095823
194	0xbcdbfe6d	-0.026854718
195	0xbd1b34ac	-0.03789203
196	0x3d865a42	0.06560184
197	0x3da1aedb	0.07894679
198	0xbd4817dd	-0.048850883
199	0xbd7db7a3	-0.061942708
200	0x3baf6823	0.0053529902
201	0xbbd82289	-0.006595914
202	0xbcf12f25	-0.029441426
203	0xbcd7a0dc	-0.02632182
204	0x3d2fb9c4	0.04290177
205	0xbe81554c	-0.2526039
206	0xbc3b0fab	-0.01141731
207	0x3d8fcd3d	0.07021568
208	0xbc5a98b7	-0.013342074
209	0x3d3f7015	0.04673775
210	0x3d05d617	0.032674875
211	0x3d7760e3	0.060395133
212	0x3d45611f	0.048188325
213	0x3b848c09	0.004045014
214	0x3cdbe52e	0.02684268
215	0x3c40daa2	0.011770876
216	0xbd7a434c	-0.061099336
217	0x3d678318	0.056521505
218	0xbd47de1c	-0.048795804
219	0x3d46d7b6	0.04854556
220	0xbd45c445	-0.04828288
221	0xbc2d37f0	-0.010572419
222	0xbd0c6a72	-0.0342812
223	0xbd9a1615	-0.07523743
224	0x3d0873ee	0.033313684
225	0x3d73b9ed	0.059503485
226	0x3c986c67	0.018606378
227	0x3d53ed7d	0.05174016
228	0xbd9d9427	-0.076942734
229	0xbb85ee72	-0.004087263
230	0x3bfeeff5	0.00778007
231	0xbbd940d8	-0.0066300444
232	0x3c490d18	0.012271188
233	0x3cb9df02	0.022689346
234	0x3d663134	0.056199268
235	0x3d244d74	0.040112928
236	0xbd08ef08	-0.033431083
237	0xbc6938aa	-0.014234701
238	0x3b7bae40	0.0038403422
239	0xbba6cfeb	-0.0050907037
240	0xbd1c5d29	-0.038174782
241	0x3c2a8f29	0.010410109
242	0x3da32e71	0.07967842
243	0x3bf391f2	0.0074331695
244	0x3a028580	0.00049789995
245	0xbd87c1a2	-0.066287294
246	0x3e8de657	0.27714798
247	0xbd0ac551	-0.03387958
248	0xbd3c214f	-0.045930203
249	0xbcc956f9	-0.024577605
250	0xbd2e8a97	-0.04261264
251	0x3da67ac1	0.08128882
252	0xbe43c0d4	-0.19116527
253	0x3d56a5b2	0.052404113
254	0x3d49dda0	0.049283624
255	0x3d80cca8	0.06289035

fc3.bias f4 [6]
0	0x3db952f4	0.09049025
1	0x3e035152	0.1282399
2	0x3e1934e4	0.14961582
3	0x3dcdb5c3	0.10044434
4	0x3cebce0f	0.02878478
5	0xbc80163e	-0.015635606
