agent_code/lisa_coin_agent_torch/dqn-model.pth (torch, 73756 bytes, 6 tensors)

fc1.weight f4 [128, 3]
000000 83 33 bb 3e 8f f0 aa bd da 91 bc be 98 0b f0 3c
       0.36562738 -0.08346664 -0.36830026 0.029302403
000010 d1 43 61 3e 9f de 62 be 2d 94 28 bc c6 b4 f0 3c
       0.21998526 -0.22155236 -0.010289234 0.029383074
000020 2a 75 92 be 95 2b de 3c 12 03 14 bd 0d 0f 71 be
       -0.28605014 0.02712039 -0.03613574 -0.23540898
000030 77 48 45 bc a7 56 0c 3d 36 27 14 bf c0 19 47 bc
       -0.012041203 0.034262326 -0.5787233 -0.012152135
000040 04 62 b5 bd 9b 37 8e bd 5c 19 14 3e 65 d5 35 be
       -0.088565856 -0.069442 0.14462799 -0.17757185
000050 6b bb b7 be e6 7f e3 be 32 a6 e2 be d1 aa 81 bf
       -0.35885176 -0.44433516 -0.44267422 -1.0130254
000060 bd cf 05 be 7a 89 74 3e af 9a 85 be e1 5e 0a be
       -0.13067527 0.23880568 -0.26094577 -0.13512756
000070 01 2a e1 bd f9 45 c5 be 11 20 80 3e ff e3 8f 3e
       -0.1099434 -0.38529947 0.25024465 0.28103635
000080 c3 d9 33 bf 0f e6 92 3d 87 37 a3 bd 4c 47 5e bd
       -0.70254153 0.071727864 -0.079695754 -0.054267213
000090 fc 91 36 be bd 28 e9 3d d8 c1 45 be 94 97 64 be
       -0.17829126 0.11384723 -0.19312227 -0.22323447
0000a0 8c e1 1b 3e 4f a9 86 be 90 74 ae bd 5a bd 9f be
       0.15222758 -0.26301047 -0.08518326 -0.3119915
0000b0 67 fd 9f be 8e af 91 be 0e c9 80 be ca 60 dd be
       -0.31248018 -0.2845425 -0.25153393 -0.43237907
0000c0 db 81 7c 3e d8 9e 85 3e bb 4b 1b bf 87 a1 eb bc
       0.24658911 0.2609775 -0.6066243 -0.028763546
0000d0 17 19 d4 be 35 57 c1 be fd 2b 99 be be f5 b4 be
       -0.41425392 -0.37761846 -0.29916373 -0.35343736
0000e0 1a 07 b9 be 18 fc 05 3f 28 23 70 3e 43 b9 05 bf
       -0.3613823 0.5233779 0.23450911 -0.5223581
0000f0 74 ad 10 3c 6c f9 4f 3c 8e 40 c3 be 00 be 6c 3d
       0.008830417 0.012693744 -0.3813519 0.057798386
000100 ec 23 15 bd bd 99 28 bf f0 72 75 bd d4 86 89 bd
       -0.03641121 -0.65859586 -0.059924066 -0.067151695
000110 30 68 c5 bd c8 67 de bb d0 57 08 3b 2c 32 09 bf
       -0.09639013 -0.006787274 0.0020804293 -0.5359218
000120 a5 98 8d be 74 e6 d7 be d0 6d 76 bf 23 ef 96 bb
       -0.2765552 -0.4216801 -0.9626131 -0.004606144
000130 07 00 f8 3b b4 e8 3b be c3 25 43 bd 38 fd c3 3e
       0.0075683626 -0.18350488 -0.047643434 0.38279128
000140 83 35 07 bf 1c 24 82 3e 1a fa 91 3e 7d 3e 96 be
       -0.5281603 0.25418174 0.28511125 -0.2934455
000150 62 f7 dc 3c a6 b2 b5 3d 67 80 aa be a3 12 ca 3e
       0.02697343 0.08871965 -0.33301088 0.39467344
000160 98 59 fb 3e d8 43 fd be b1 b9 92 3e bb 47 91 3e
       0.49091792 -0.49465823 0.28657296 0.28375039
000170 d8 90 ca be bb 4d a3 bc 5a 6a 93 bc 54 fc a9 3c
       -0.39563632 -0.019934526 -0.017995048 0.020750202
000180 cc e8 b3 3c 27 73 d7 3e 71 1b 35 bf f1 25 63 3e
       0.021961592 0.42080042 -0.70745 0.22182442
000190 ab 96 2a 3e 4d 66 4f be 71 d9 38 bd 0f 54 d6 bc
       0.16659038 -0.20253868 -0.045129243 -0.02616313
0001a0 cb 86 95 bc ef 46 c4 3e c5 0d fe be 02 54 45 bf
       -0.01825275 0.38335368 -0.4961988 -0.7708131
0001b0 a2 75 fc bd 1e ae 7b bb 90 a0 c9 be 4b 3b 6a 3e
       -0.12327124 -0.0038403342 -0.39380312 0.22874181
0001c0 50 79 06 bf c2 2d 6d bf a5 69 d2 be 12 7f cb 3e
       -0.5252886 -0.92647946 -0.41096225 0.39745384
0001d0 1a aa 63 bf 66 93 46 be 9c 0b 33 3f ec cf 07 be
       -0.8893143 -0.19392166 0.6993959 -0.1326291
0001e0 40 91 bc 3d 88 6b de 3e cf e0 10 bf 4c 4c 7b 3e
       0.09207392 0.43441415 -0.5659303 0.24540824
0001f0 6b dc 84 3e 0c 2c 9c be 08 a9 92 3d 98 10 9a bd
       0.25949416 -0.30502355 0.071611464 -0.07522696
000200 b6 5f 29 bf 32 81 f4 3d b2 da 1b 3e 7f 02 bd be
       -0.6616167 0.119387046 0.15220144 -0.36915967
000210 a4 8a a8 bc d4 7c 66 3e fd af 5a be 6f 1f d2 bc
       -0.020573922 0.22508556 -0.21356197 -0.025649754
000220 c8 da fc bc 40 9b 87 be 20 61 7d be 25 c5 88 be
       -0.030866042 -0.26485634 -0.24744081 -0.2671291
000230 ab d8 12 bf a9 3f 4f be 39 cc 2a 3e 8f c2 2a be
       -0.5736186 -0.20239128 0.16679467 -0.1667578
000240 db a4 59 3f a6 d6 4f be f1 fd 25 bf 4d d5 78 bd
       0.85017174 -0.20296726 -0.6484061 -0.060750294
000250 5a 8c 74 3d 17 78 72 bd 53 ec 4f be 35 84 a1 3d
       0.059704162 -0.059196558 -0.20304994 0.078865446
000260 70 fe 5d be 91 2e 8b bd e8 fd 57 ba 2d ca 84 bd
       -0.21679091 -0.06795991 -0.0008239434 -0.064838745
000270 cc 1c 49 bc fc 96 b4 bc 9f 65 d7 3b e2 6c 35 be
       -0.012274932 -0.022044651 0.0065733935 -0.17717317
000280 4a c7 53 be c8 5f 6c be c0 3b 70 be 21 30 8e 3e
       -0.20681491 -0.23083413 -0.23460293 0.27771094
000290 08 1e ad be 5b dc 30 be 33 f1 30 be 3d 4c 35 be
       -0.33811975 -0.17271559 -0.1727951 -0.17704864
0002a0 4c 44 aa 3d 82 93 3a be 8a a2 2b be 61 9f 97 bc
       0.08313808 -0.18220332 -0.16761222 -0.018508615
0002b0 20 27 ed 3d f3 64 08 be 11 d1 36 be 93 bd 25 3e
       0.11579728 -0.13319759 -0.1785319 0.16185598
0002c0 77 12 1f be bc 40 87 bd e7 a6 bb 3d 6f af 97 bd
       -0.15534388 -0.06604144 0.091626935 -0.07406508
0002d0 0e dd 85 3c f0 e9 84 3c d4 20 10 bd 73 1e a0 3e
       0.016340759 0.016224831 -0.035187557 0.3127323
0002e0 96 55 89 be b3 88 f0 be 71 c3 55 3e bb bd 6c 3e
       -0.2682311 -0.46979293 0.20875336 0.23119251
0002f0 7f ff 2f bf 19 11 d9 3d 26 95 d1 3d 2b 70 f0 bd
       -0.6874923 0.10598964 0.10233526 -0.11740144
000300 20 fe 68 3e 94 6a 98 3e f4 fc db be 2c 63 44 be
       0.22753191 0.29768813 -0.42966425 -0.19178456
000310 80 f8 e3 3d 28 f3 7d be 3d 43 6a bc 13 ff 00 3f
       0.11131382 -0.24799788 -0.014298257 0.5038921
000320 15 68 4c bf dd b9 bf 3e fe 05 90 3e 42 c4 0d bf
       -0.79846317 0.3744649 0.28129572 -0.5537759
000330 d3 6a 94 be 8f 08 52 be fa c7 92 be d1 b4 ce 3c
       -0.2898775 -0.20511077 -0.28668195 0.025232704
000340 ba 47 57 ba af cf 4e bc 51 13 d6 bc b8 e6 00 3e
       -0.0008212287 -0.012622758 -0.026132258 0.12588012
000350 95 89 e7 be 30 0a c1 bd 2e d5 be 3d 16 11 95 bd
       -0.45222154 -0.09425771 0.093180045 -0.072786495
000360 01 6e 1a be ef 7c 31 3e c9 9f 1b be 54 90 84 3d
       -0.15081026 0.17332815 -0.15197672 0.06472841
000370 14 2f 65 be e8 08 7a be 4d da 6b bd b5 3f b7 3e
       -0.2238124 -0.2441746 -0.057581235 0.35790792
000380 f0 94 c5 be 6f fa 95 3c 38 e9 b0 3c aa 95 8e be
       -0.38590193 0.018307893 0.021595582 -0.2784856
000390 3a 62 0a be 04 21 7b 3e c7 92 56 be 50 c4 21 3e
       -0.13514033 0.24524313 -0.20954429 0.15797544
0003a0 84 72 d7 3d 1a 69 4a be de 07 cb bd 1c 01 ea 3d
       0.10519889 -0.19766656 -0.0991361 0.11425993
0003b0 35 29 13 bf 06 df 61 3e c5 aa 5a 3d 3b 28 5c be
       -0.5748475 0.22057733 0.053385515 -0.21499722
0003c0 87 17 97 be 97 38 37 bd 6c 45 89 be 18 f6 0f be
       -0.29510137 -0.044731703 -0.26810777 -0.14058721
0003d0 61 2d de 3e 37 98 cf be 05 85 49 be e8 40 f6 3d
       0.43393996 -0.40545818 -0.19679649 0.12024099
0003e0 42 c7 67 be ac 68 be bd 93 24 c0 3e d2 3f b6 be
       -0.22634605 -0.09297308 0.37527904 -0.35595566
0003f0 22 76 d4 3e bb da a4 be fe a9 4a bf 31 06 4b 3e
       0.41496378 -0.32198128 -0.7916564 0.1982658

fc1.bias f4 [128]
000000 4d de 5f be 10 93 2c bf 94 2d 36 bb 63 cf 76 bb
       -0.21862145 -0.674119 -0.0027798163 -0.0037660233
000010 f0 ce 01 bb da a8 9d be 79 17 c2 bb 0a 4c 60 3f
       -0.0019807182 -0.30792886 -0.0059232083 0.87616026
000020 3f 9d e1 be 59 d4 5b bc fe 66 4a 3f 1d da 65 bf
       -0.44065282 -0.013417327 0.79063404 -0.8978594
000030 b8 0c 16 bf 91 71 d3 be a9 c3 57 bc b0 67 34 bc
       -0.5861316 -0.41297582 -0.013169208 -0.011011049
000040 db 17 86 b9 4e 48 2f bf 43 34 15 bd fa ac a7 bc
       -0.00025576245 -0.68469703 -0.036426794 -0.020468224
000050 24 b0 2a bb c8 bb 0b bc 79 c7 30 bf 8d 91 92 3e
       -0.002604493 -0.008528657 -0.6905437 0.2862667
000060 01 4a a5 bb f9 22 f7 ba d5 a1 84 bb aa 43 63 be
       -0.0050442223 -0.0018855027 -0.004047612 -0.2219378
000070 57 03 a1 3f 62 2a fb be ac c0 26 bc d2 fd bb 40
       1.2579144 -0.49055773 -0.0101777725 5.874734
000080 92 4c 2e 3f 13 b8 07 bf 4b be fa be e6 b0 74 3f
       0.6808559 -0.5301525 -0.48973307 0.95582426
000090 51 5f 82 bb 2e 48 84 3e f0 66 5f bc 07 b0 3f 3e
       -0.0039786478 0.2583632 -0.013635382 0.18719493
0000a0 a2 c2 c4 be 05 10 8b bb 67 0e 10 bc 81 53 79 bc
       -0.38429743 -0.004243853 -0.008792496 -0.015217663
0000b0 5d 71 76 be ad 01 1a b9 94 38 29 be 32 bf 19 bf
       -0.24066682 -0.00014687209 -0.16525489 -0.60057366
0000c0 04 08 36 3f a9 4b 9a be 8a 5d c9 be b1 bb 0f be
       0.7110598 -0.3013585 -0.39329177 -0.14036442
0000d0 93 20 9a bf 49 27 c6 be f4 4f 8d bd 88 91 08 be
       -1.2041191 -0.38701847 -0.069000155 -0.13336766
0000e0 98 b3 a4 be a1 a4 10 bf fa 5b 24 bf 67 5f 96 be
       -0.3216827 -0.56501204 -0.64202845 -0.2936966
0000f0 7f d8 32 bf 96 d1 04 ba b7 af 12 3e 06 55 06 bd
       -0.69861597 -0.0005066631 0.14324842 -0.03279593
000100 aa a2 e7 be a1 f7 a6 be b7 d8 09 ba bf 1f ab bc
       -0.4524129 -0.326108 -0.0005258428 -0.020889161
000110 c1 a2 97 be cd 55 31 41 5a cf 99 b9 6f 22 26 bf
       -0.2961636 11.083447 -0.00029336923 -0.6489629
000120 92 e7 b2 be ac 01 25 bd b4 31 7b bd 15 6e 01 bc
       -0.349423 -0.040284798 -0.061326697 -0.007899781
000130 c0 98 32 bf 3f 2d 10 be f8 a0 65 bb 86 ca a3 be
       -0.6976433 -0.1407976 -0.0035038572 -0.3199045
000140 c7 42 30 bf 36 2a 18 bf 8e 54 c1 be 82 9d ce be
       -0.68851894 -0.5943941 -0.37759823 -0.40354544
000150 fc 1c 39 3f 25 c2 90 be a7 6b 83 bd e9 4f eb bb
       0.7230985 -0.2827312 -0.064170174 -0.007181157
000160 7a 0d bf be e4 68 a4 bc 67 29 13 3f ad 60 5f bf
       -0.3731497 -0.020069547 0.5748505 -0.8725689
000170 1e aa 3b bf 42 b9 73 bb 86 5e 00 bf 61 79 a4 bb
       -0.73306453 -0.003718928 -0.5014423 -0.0050193523
000180 b2 61 9b bd 0d ae b1 be 98 1a 62 be 98 01 60 be
       -0.07586993 -0.34703103 -0.22080457 -0.21875608
000190 db 45 62 bd f7 9d 3b bf 88 8d 4b bb 1c 0c 23 3e
       -0.0552424 -0.7328791 -0.00310597 0.15922588
0001a0 20 da 53 bb b1 09 a8 bb e2 9c 6f be 0f 77 c4 be
       -0.0032326058 -0.0051281084 -0.2339969 -0.38372084
0001b0 fc f4 08 bf 42 0e 01 bf 80 9c ca bd 3a c1 21 bf
       -0.53498816 -0.5041238 -0.09893131 -0.63185465
0001c0 7b 6a 0a bf 8b 39 47 bf 3e 5d bd bf ec a9 ce bd
       -0.54068726 -0.7782218 -1.479408 -0.10091004
0001d0 ec 61 10 bf 82 5e f1 be 39 5d 02 3f 5c 06 84 bb
       -0.56399417 -0.47142416 0.50923496 -0.0040290784
0001e0 dd 71 50 be e2 12 2a bd 1a 5e c3 3e 86 34 12 bf
       -0.20355935 -0.041521914 0.3815773 -0.57111394
0001f0 93 4a 93 bc a3 7c dc ba a2 57 80 3d 6a 9a 93 be
       -0.017979896 -0.0016821813 0.06266715 -0.28828746

fc2.weight f4 [128, 128]
000000 9c 3a 98 3d 7c 32 dc bc 25 f0 de bd 29 57 f7 3c
       0.07433054 -0.026879542 -0.10885648 0.030192928
000010 e3 dd ce bd 89 a0 6a bd 1b f4 7e bb 5d 6a c1 3b
       -0.10100915 -0.057282005 -0.0038902822 0.005902572
000020 2f 70 23 3d 81 5d 92 bd 14 7a 65 bc 9a c5 b5 bb
       0.03990191 -0.07146741 -0.0140061565 -0.0055472376
000030 2c b3 40 3c b4 4e d8 3c f2 15 4a 3d 5c ac ce 3d
       0.011761468 0.026404716 0.049337335 0.10091469
000040 f1 07 0e bd f6 90 16 3d 61 4a b3 3d 9c 06 42 bd
       -0.034675542 0.03675934 0.08754421 -0.047369584
000050 f2 a2 54 3c d7 2b a5 3c 10 b6 da 3c 5f a7 7a 3d
       0.012978302 0.020162506 0.026698142 0.061194774
000060 80 98 84 3c a1 98 ef bd 00 75 75 bd 1c 07 06 bd
       0.016185999 -0.116990335 -0.059926033 -0.032721624
000070 63 f6 63 bd de 8c 89 bd bb 3d 8e bd c7 ee 01 be
       -0.055654895 -0.067163214 -0.06945368 -0.12688743
000080 e1 0e e5 bd 8b ec 3c bb 7a 34 21 bd 9b 2a 22 bd
       -0.111844786 -0.0028827514 -0.039356686 -0.039591413
000090 e1 65 8b 3b 5e ea 30 3e 8e 97 d3 bd 61 45 31 3c
       0.0042540883 0.17276904 -0.10331641 0.010819764
0000a0 c6 e9 20 3d 65 bc 0c 3d 39 07 15 bd 70 45 5d bd
       0.039285444 0.034359355 -0.03638384 -0.0540213
0000b0 34 00 a5 bb 3b 3e 0e bd 09 42 5d bd 70 bb 8f bd
       -0.0050354246 -0.034727316 -0.054018054 -0.07018173
0000c0 63 e5 e5 bc 4c a8 94 bd d6 6a 62 3d d3 bd 30 bb
       -0.028063482 -0.072586626 0.055277668 -0.0026968613
0000d0 32 5f 9d bc ce 7d 77 3d 2e 3d 4c 3d 96 7f 85 bd
       -0.019210432 0.06042271 0.049863033 -0.06518476
0000e0 5c 87 55 bd 1e 3d ad 3d 1a 36 d3 bd 04 70 04 bc
       -0.052131042 0.08458923 -0.103130534 -0.008083347
0000f0 e3 f8 51 3c ee 90 e7 bd 7a 01 8e 3d 4d f7 24 bd
       0.012815687 -0.1130694 0.069338754 -0.040274907
000100 38 c0 68 bd 0b f6 96 bd 04 90 e3 bd 11 be ce bd
       -0.05682394 -0.07371148 -0.11111453 -0.10094846
000110 6c 75 36 3c 4e d3 ef bc ad 27 e0 bc ae b5 1a be
       0.011136394 -0.029275563 -0.027362669 -0.15108368
000120 5d 65 3d be 98 c2 c5 3d c1 c8 20 3d 26 fd 91 bd
       -0.18495698 0.096562564 0.039253954 -0.07128362
000130 26 f7 fb 3c e4 a0 1a 3d dc cd c8 3c 68 0e 03 3d
       0.030757498 0.037751094 0.024512224 0.03199616
000140 fd ac 94 bd 0c 3c 59 3a 4f a4 79 bd 7e 29 c6 bd
       -0.072595574 0.0008286841 -0.060947713 -0.09675883
000150 83 93 90 3c 1c f9 c7 3d 3d d1 5b 3d 44 88 e0 bd
       0.017648464 0.09764311 0.053666342 -0.109634906
000160 0f 66 d7 bd 23 00 1a bd 74 0f 7d 39 6e bd 1e bd
       -0.10517513 -0.037597787 0.00024133717 -0.038754873
000170 c0 3b 8c 3d a8 f1 87 bc df 70 1e 3d 3e d1 86 3d
       0.06847334 -0.016594723 0.03868186 0.065828785
000180 24 48 a9 bd 95 5f bb 3c 58 7c 40 3d 2d 76 3b 3d
       -0.08265713 0.022872726 0.046993583 0.045766998
000190 10 e4 2f 3c d8 26 8b bd 26 be 61 3c 90 37 c1 bd
       0.010735527 -0.06794518 0.013778245 -0.09434426
0001a0 63 ba 90 3b c6 9a ce ba 4e 97 7f bd c2 f1 c2 3c
       0.0044167503 -0.0015762679 -0.062400155 0.02379692
0001b0 96 2b 83 3d d5 e3 48 bd d0 33 06 bc fb cf 8a 3c
       0.06404798 -0.049045403 -0.008191064 0.016944876
0001c0 68 63 23 bc c8 04 33 bd b3 82 80 3d 73 14 0d bd
       -0.009972431 -0.04370573 0.06274929 -0.03444333
0001d0 51 58 50 3d 26 4d 9d bd 8e 15 10 be 66 aa b5 3c
       0.050865475 -0.076807305 -0.14070722 0.022175979
0001e0 1e d5 1a 3c 35 a1 ae bd 8c ec e1 3b e0 cd 55 bd
       0.009450225 -0.085268416 0.0068946537 -0.05219829
0001f0 15 22 07 3c e1 5a 7a 3d 45 b0 a3 bd 64 f0 73 bc
       0.008247872 0.061121825 -0.07992605 -0.014888857
000200 55 63 e4 3a a9 07 f3 bc fa 22 5c bd b1 48 31 bc
       0.0017424623 -0.029666739 -0.053744294 -0.010820554
000210 d8 13 58 bc 72 53 4f bd 77 a4 92 bd 9d 18 5f bb
       -0.013188325 -0.05061669 -0.071602754 -0.003404177
000220 e8 a8 da bd 68 07 84 bd 27 9d dd bd da ad d3 bd
       -0.106767476 -0.06446725 -0.1082099 -0.10335894
000230 91 b8 5c bd 01 1d 7e bc ed 44 6d b8 c9 13 d5 bd
       -0.053886954 -0.015509845 -5.6569395e-05 -0.10404164
000240 3b de b2 bd e1 d2 eb 3c be 36 25 3b a8 4b 7b bd
       -0.08733793 0.028787078 0.002520963 -0.06135145
000250 95 f3 19 3d cc 27 d7 bd 5d 4f 99 bd f8 bd 38 bd
       0.037585814 -0.105056375 -0.074858405 -0.045103043
000260 b2 36 08 3b ab 4b 01 be b6 c9 e7 38 c9 20 4a bd
       0.0020784554 -0.12626521 0.0001105251 -0.049347673
000270 d4 54 8f 3d 99 54 d8 3c b8 63 37 bc 27 df df bd
       0.069986016 0.026407527 -0.011193208 -0.10931235
000280 d5 c6 4f bd 9d 34 95 3d 02 a7 c3 bd 10 07 88 be
       -0.05072673 0.07285426 -0.095533386 -0.26567888
000290 ba 96 81 3e 7f 45 be bd 35 23 a2 3d 87 30 da b9
       0.25310308 -0.09290599 0.079168715 -0.00041616356
0002a0 8c 4f a6 bc 32 df 15 bb 1c 27 71 be 58 26 e6 bd
       -0.020301603 -0.002286863 -0.23550075 -0.11237782
0002b0 ce 3d 49 bd 44 3f 06 be 78 31 92 bd 3e 9f b7 bd
       -0.049131207 -0.13110071 -0.07138342 -0.0896592
0002c0 fc 21 05 be f7 c1 b6 bd 10 64 01 3d 35 41 a8 3c
       -0.13001245 -0.089237146 0.031589568 0.020538906
0002d0 3e 29 61 bd 2a 07 aa 3c cf 7d 5c 3d 17 b0 c3 bb
       -0.054970972 0.02075537 0.053830918 -0.0059719193
0002e0 b2 b4 ca bd 5b 21 24 bc 28 fb 9f 3d 3b 42 ea bd
       -0.09897746 -0.010017718 0.07811576 -0.11438414
0002f0 47 44 01 be f9 c5 80 be 20 52 c2 bd 1d 43 9e bc
       -0.12623702 -0.2515104 -0.0948832 -0.019319111
000300 90 3f 33 3c de 6d 28 bd a1 9d eb 3c 01 49 a8 bc
       0.010940447 -0.041120403 0.028761687 -0.020542623
000310 7d d2 d6 bd ec 8a ac bd ad 29 5b bd 0f 44 b4 bd
       -0.10489366 -0.08424935 -0.053506542 -0.08802044
000320 71 dd c3 bd 64 d7 61 bd 63 30 41 3e 87 ba 42 bd
       -0.09563721 -0.055137053 0.18866114 -0.047541168
000330 ae 5c 90 bc c3 f3 04 3d b8 ea 87 bc 2e d8 b5 3c
       -0.017622318 0.03245903 -0.016591415 0.02219781
000340 fb 19 0e bd cb cc 16 bb 6f e1 8f bc 33 2f 35 3d
       -0.034692746 -0.002301025 -0.01756355 0.044234466
000350 0e ad 05 be a2 27 ce bb bc 84 1d bd f5 bc 0d be
       -0.13054296 -0.0062913457 -0.038456663 -0.13841613
000360 84 d1 46 bc d8 5b d2 bd 5b 34 75 bd 94 92 80 3d
       -0.012134913 -0.10271424 -0.059864383 0.062779576
000370 8d dd 0c bd a7 e3 9c 3d 06 b1 50 bb 6d 72 0f be
       -0.034390975 0.07660609 -0.0031843795 -0.14008494
000380 10 aa c3 bc 6b 27 71 3d 96 46 bb 3c 50 59 13 3d
       -0.023884803 0.058875483 0.022860806 0.035973847
000390 1f 4d 97 bd 1f db b6 bd 9c a5 bc bd 9c 38 43 bd
       -0.073877566 -0.08928513 -0.09211275 -0.04766141
0003a0 0a 12 dc bc e2 07 15 3d 00 eb e0 bc 9e cf 84 bd
       -0.02686407 0.03638447 -0.027455807 -0.06484912
0003b0 9f 0d 04 3e 35 50 8d bd a8 ef 71 bc 07 87 8f 3c
       0.12895821 -0.06900064 -0.014766611 0.01752044
0003c0 41 ec 91 3d ee 24 fc bb 16 3c 97 bd e0 b6 09 bb
       0.0712514 -0.007694832 -0.07384507 -0.0021013543
0003d0 a9 ec 17 be 34 9b 84 bb 97 a7 18 be 20 25 a8 3d
       -0.14836372 -0.004046822 -0.1490768 0.08210206
0003e0 1f 33 fe bd 3d 2a 70 3d 99 29 04 bd 88 8a 4c bd
       -0.12412094 0.05863403 -0.032266233 -0.0499368
0003f0 b7 4a 58 bd 19 c7 0c bd de 68 9c bd c3 56 3c 3e
       -0.05280563 -0.03436956 -0.07637189 0.18392472

fc2.bias f4 [128]
000000 b1 10 1f bc 72 e7 2f bc 9b 95 e2 bd 48 ae 88 bd
       -0.009708569 -0.010736333 -0.11063691 -0.066738665
000010 9a 4c 62 bd ed 42 d2 bd 2f 93 80 bc b3 db 34 3c
       -0.055248834 -0.10266671 -0.015695183 0.0110387085
000020 67 b8 00 be 25 2d ac 3e f0 69 2d be b8 9d 76 bd
       -0.12570344 0.33628193 -0.16934943 -0.060209006
000030 d5 76 18 bd 08 fd fc bc e9 b2 c3 bd 72 7f 21 3e
       -0.037222702 -0.030882373 -0.09555609 0.15771273
000040 74 69 06 be 52 e1 e5 bd 25 78 db bc cf bc 1c 3d
       -0.13126165 -0.11224617 -0.026790688 0.038266
000050 05 91 df bc 38 05 09 be 58 69 54 bd 3c c6 ff bd
       -0.02729083 -0.13380897 -0.051858276 -0.12488982
000060 77 b1 db bd 3a 0d 45 bd 0d 8b 0c be 46 d0 0e bd
       -0.10727208 -0.048108317 -0.13724919 -0.034866594
000070 de 3a b9 bd d0 e6 d4 bd cd 69 ee bd fa 3b 24 bd
       -0.09044431 -0.103955865 -0.11641274 -0.04009626
000080 0c b8 70 bd f3 db 36 bc 94 3b bc bd b7 00 14 bc
       -0.05876927 -0.011160838 -0.09191051 -0.009033374
000090 d1 0d dd bd df 66 47 bc 7f 94 c2 3e 9f f2 ca bd
       -0.10793651 -0.0121705225 0.3800392 -0.099095576
0000a0 14 d2 b2 bd c0 77 d5 bd 7e 73 ad 41 3c 3c 58 ba
       -0.087314755 -0.10423231 21.681393 -0.0008248722
0000b0 4d af 60 bc 81 1b 4d 3d 56 1b b5 bb a5 6f 0a 3d
       -0.01371367 0.050075058 -0.0055269403 0.03379788
0000c0 46 2b 7d bd 63 c0 b7 bb a2 40 73 bd 32 84 2e bd
       -0.061808847 -0.005607651 -0.05938781 -0.04260654
0000d0 dc be 12 bd db 48 91 bd 7c dd a9 bb ca d7 df bd
       -0.03582655 -0.07093974 -0.0051838737 -0.1092983
0000e0 89 4e 06 bd 81 ec 25 be b9 85 95 bc 25 c6 61 bd
       -0.03278974 -0.162035 -0.01825224 -0.055120606
0000f0 d7 82 55 bd 7f 8e af 3c 7c 3c 82 bd 9a 3f 8a bd
       -0.05212673 0.021430252 -0.06359193 -0.06750412
000100 2b a8 e9 bd 71 f0 64 bd 7f 83 d7 bb a7 a2 68 bd
       -0.114090286 -0.055893365 -0.006576955 -0.056795742
000110 fa 30 3d bc a6 4d 8a bd 1b f2 4b bd fd f6 bb bd
       -0.011547321 -0.067530915 -0.049791437 -0.09177969
000120 7d f5 9b bd 2e f4 17 be d7 06 5e bd 4f 47 b5 3e
       -0.076151825 -0.14839241 -0.05420574 0.35405967
000130 d9 75 68 bd eb a8 ff bd 31 c9 24 3c 71 9b a5 bd
       -0.056753013 -0.124833904 0.010057733 -0.08086289
000140 9b 8f ba bd 7f dc e0 bd df b3 9b bd 91 6b 7f bd
       -0.09109422 -0.10979556 -0.07602667 -0.062358443
000150 0c 58 82 bd 75 01 50 bd 72 55 a1 bd b2 cc b9 bd
       -0.0636445 -0.05078264 -0.078776255 -0.09072246
000160 18 fe 83 bd 45 c6 43 be 28 91 88 3d df 2e 09 be
       -0.06444949 -0.19118603 0.06668311 -0.13396786
000170 f2 65 e1 ba 91 ca 21 bd f6 a5 e3 bd 96 5d 30 bc
       -0.001719652 -0.039499823 -0.11115639 -0.0107645
000180 cf 27 fb bd 6e 22 84 3c 69 3c 10 be f9 89 ff bc
       -0.12263452 0.016129699 -0.14085545 -0.03119372
000190 3b c9 8f bc 88 48 b7 3a 06 fe 88 3e 09 3b bf bd
       -0.017552009 0.0013983408 0.26756305 -0.09337432
0001a0 a0 31 c3 bd b3 7d 3d be 54 25 ab bd 99 b1 cc bd
       -0.095309496 -0.18504982 -0.08356729 -0.099948116
0001b0 59 1e ce bd 82 e5 2a bd de f0 1d bb 32 df 7b bd
       -0.10064382 -0.041722782 -0.0024099867 -0.061492153
0001c0 c4 c5 9e bb 32 5e d9 bb 91 5d 78 bd a0 87 a4 3b
       -0.004845353 -0.0066335434 -0.060636107 0.0050210506
0001d0 00 f6 2d 3b 82 ac 6d bd 23 94 7d bd fb 94 26 bd
       0.0026544333 -0.058025844 -0.061908852 -0.040669423
0001e0 06 94 21 bd 68 43 bf bd 80 3f dd bd 80 75 f5 bd
       -0.039447807 -0.093390286 -0.10803127 -0.11985302
0001f0 b3 75 42 bd 5b 57 97 bd ed ff f7 bd a4 a6 e6 bd
       -0.047475528 -0.073897086 -0.12109361 -0.11262253

fc3.weight f4 [6, 128]
000000 d0 b7 3d bb 10 1d a6 bd a6 df 11 bd 17 41 a5 bc
       -0.0028948672 -0.08111012 -0.03561368 -0.020172639
000010 da 62 1a 3c 22 13 9f bc c8 fa 58 3d 5c c6 e2 bb
       0.009422982 -0.019418303 0.05297354 -0.006920619
000020 a6 2e 89 3c 67 68 a3 bd 9c 1f b2 bc 9c fb fb 3b
       0.016745877 -0.079788975 -0.021743588 0.0076899063
000030 c1 e4 79 3d f8 2c cd 3c b4 56 c2 3c ea b7 07 bc
       0.061009172 0.025045857 0.023722984 -0.008283595
000040 37 2d dd 3c 0b 49 4d bd af 92 13 3d 78 f7 5a bd
       0.0269991 -0.050118487 0.03602856 -0.05345866
000050 be 34 90 bd be d0 04 bd 9c b6 0e 3d dd b8 b8 3c
       -0.0704131 -0.032425635 0.03484212 0.022549087
000060 ec 82 fe bd 3a 91 72 3d ee ec 58 bd 0b c6 79 bc
       -0.12427315 0.05922053 -0.05296033 -0.015244971
000070 36 84 f2 bc 29 04 8f 3d 59 9d 3e bd 54 df b8 3b
       -0.029604059 0.06983215 -0.046536777 0.005641857
000080 8a 2b 80 3c bf 8d f1 3c 52 a0 7d be 89 8a 62 3d
       0.015645761 0.029486535 -0.24768189 0.0553079
000090 74 47 4e 3d 68 7a aa 3c 5c a9 aa 3d dc 97 dd bc
       0.05036111 0.020810321 0.08333084 -0.027049951
0000a0 8f 0d a3 bb 0e 06 49 3d bb 96 81 3f 14 38 55 3d
       -0.0049759815 0.04907804 1.0124124 0.052055433
0000b0 70 e1 b1 bc 88 64 e5 3c b5 2f 52 bc 57 2b 3f 3d
       -0.021713942 0.028002039 -0.012828757 0.04667219
0000c0 37 b6 d1 3b 0e c8 06 3d 8d a9 60 bc 70 cf a4 bc
       0.0063998955 0.03290563 -0.013712299 -0.020118445
0000d0 5f a5 21 3c 33 e2 8a 3c df a8 a8 39 fa 32 dd bc
       0.009866088 0.016953563 0.00032169276 -0.027001847
0000e0 37 2b ac bc 5f df bd bc 68 35 09 3b b1 88 2c 3b
       -0.0210167 -0.0231778 0.0020936374 0.0026326592
0000f0 9e 78 0f bd 6b 61 83 3d de d4 b4 bb 75 b5 d0 bc
       -0.03502714 0.064150654 -0.00551854 -0.02547715
000100 b7 87 3f bd af b8 09 be af ae 05 bd ef b6 35 3c
       -0.046760287 -0.13449357 -0.032637294 0.011090978
000110 18 cd a6 bd eb 4c 96 3c 45 da 07 bd 25 7c 7b 3c
       -0.08144587 0.018347224 -0.033167142 0.015349423
000120 c5 82 b8 bc 9d a9 66 bc 28 89 7c 3d f1 b7 94 3e
       -0.022523293 -0.014078525 0.06165424 0.29046586
000130 3c 6f 8f bc 60 e9 80 ba ec 64 e9 bc 27 f3 13 bd
       -0.017509095 -0.0009835176 -0.028490506 -0.03612056
000140 d5 78 9d bd 49 9b a5 3c 22 97 ae bc d6 0e bd b9
       -0.076890625 0.020215647 -0.0213123 -0.00036059943
000150 d1 8f 12 bd ca ad 30 bd f0 55 77 3d e4 38 29 3d
       -0.035781685 -0.04313449 0.06038469 0.04131402
000160 ec 59 48 bd 33 ae 12 bc b5 74 88 bc fc 32 30 bc
       -0.04891388 -0.008952665 -0.016657213 -0.010754343
000170 26 88 76 bd 24 d0 9e bc fa 2f f3 bc 1c bd d3 bb
       -0.060188435 -0.019386359 -0.029685963 -0.0064617526
000180 7b d0 78 bd aa d4 15 bf ef e4 e0 bc 28 dd 9d bd
       -0.060745697 -0.58527625 -0.027452914 -0.07708198
000190 bc 45 36 bd 24 ba 88 3d 18 32 f7 bd 59 90 df bc
       -0.044500098 0.066761285 -0.120701015 -0.02729051
0001a0 12 9c 20 bd 2b a5 20 be 9a 41 27 3c 5c 3f 19 bd
       -0.03921134 -0.15688007 0.010208512 -0.03741394
0001b0 1b 1c 10 bd d5 85 59 3d 37 1b 83 3c aa a5 4b 3d
       -0.035183053 0.053106148 0.016004188 0.049718536
0001c0 1a 2d 68 3d 3a e3 0f bc 46 cd 0b bd 96 36 58 3c
       0.056683637 -0.008782202 -0.03413131 0.013196608
0001d0 30 fb 09 3d 20 f8 44 3b 2c f1 19 3b 03 51 52 3c
       0.033686817 0.003005512 0.0023489697 0.0128366975
0001e0 0c b5 b9 bb 40 96 85 bc c6 c7 30 bd e1 de a0 3d
       -0.0056673344 -0.016306996 -0.04315927 0.07855011
0001f0 28 fa 49 bc 8f c4 16 bd 2b 6b 42 3d 18 08 d5 bd
       -0.012327708 -0.036808547 0.047465485 -0.104019344
000200 10 14 9a bd e0 81 76 bd 2b 3f 94 bc 1c 7c 56 bd
       -0.07523358 -0.060182452 -0.018096527 -0.052364454
000210 a0 8a 38 bc 18 5e e8 3c f1 ef 14 3d b5 39 45 3d
       -0.0112635195 0.02836518 0.03636164 0.048150737
000220 f8 d4 84 bd d8 57 cc bb 79 ee 25 bd 43 59 fe bc
       -0.06485933 -0.0062360577 -0.04051063 -0.031048423
000230 c6 c7 d1 bb 22 f1 95 bd 38 a2 34 3c bb 10 d4 3d
       -0.0064019887 -0.07321383 0.011025004 0.103547536
000240 de 57 ad bc e1 a5 5b 3d 8f 33 b7 bc c0 f4 6f bc
       -0.021160062 0.05362499 -0.022363452 -0.014645755
000250 6e 1e 31 3d 9a ec 2f 3c 8b 63 9f 3d 66 f4 be 3c
       0.04324191 0.010737563 0.07782658 0.023309898
000260 61 8a 0b bd 86 92 88 3c dd b9 af 3d 67 b8 04 bd
       -0.034067515 0.01667143 0.085803725 -0.032402422
000270 45 b4 c4 bc a3 7d 23 3d a5 0d 5b bc 9c 78 08 3d
       -0.02401174 0.03991474 -0.013369952 0.033318147
000280 84 1a 9f ba 01 95 93 3d 3f c0 1c be 58 05 01 bd
       -0.001213864 0.072061546 -0.15307711 -0.031499237
000290 26 ea cf bc 97 dc 04 bd 1d f3 9b 3e 6e e9 6a 3c
       -0.025380205 -0.032436933 0.30458918 0.014337881
0002a0 86 2b 5e bd ec 05 be bb 85 0c 82 3f 35 83 01 3d
       -0.054240726 -0.005799046 1.0160071 0.03161927
0002b0 cb 4b af 3c ba 66 1c 3d 03 30 8d bd b5 3e 05 bd
       0.021398446 0.038183905 -0.06893923 -0.032530505
0002c0 b6 65 c1 3c 48 9b 2f b9 c7 8e 20 3d 04 7a f5 3c
       0.02360807 -0.00016747147 0.039198663 0.029965408
0002d0 f8 b6 14 3d 49 e5 62 bd ed d6 75 3c 3d db 3d 3b
       0.036307305 -0.055394445 0.015004856 0.0028969788
0002e0 d5 04 88 bd f6 d3 79 3c 94 8f 9a 3b 76 73 7a bc
       -0.06641547 0.015248289 0.004716823 -0.015286317
0002f0 7e 7f 8d 3c d9 63 56 bd 79 af 5a 3b 8c 70 c5 3c
       0.017272707 -0.052341316 0.003336875 0.024101518
000300 45 19 e8 bc 61 4b 17 3c fb 17 89 3d 99 d8 1a 3d
       -0.028332362 0.00923428 0.06694027 0.03780422
000310 0b f6 e9 3c 8a 87 5b bd 3f 51 35 bd d5 34 0f bd
       0.028559705 -0.053596057 -0.044266935 -0.034962494
000320 78 44 0e bd 38 9b 3d bc 9e 3c b6 be 6e 10 aa 3c
       -0.034733266 -0.011572652 -0.35593122 0.020759787
000330 1a bd 6e bc 27 63 23 3b d4 69 57 3c 10 10 ad be
       -0.0145714525 0.0024930926 0.01314779 -0.33801317
000340 7d 48 ae bd bc f9 d9 b9 6e 37 9b bd 2a ea 4a bc
       -0.0850992 -0.00041575532 -0.07578932 -0.012384931
000350 60 75 cf 3a d3 94 73 bd 76 92 f7 bc 91 32 55 bd
       0.0015827827 -0.0594681 -0.030221205 -0.052050177
000360 4e 63 a7 bc 2c 6b 94 be e8 63 7c 3b 6e cf 7c bc
       -0.020433094 -0.28988016 0.0038511697 -0.0154303145
000370 97 25 52 bc fb 1b d7 bc b4 13 f2 3c 09 ee ff bc
       -0.012826345 -0.02625846 0.02955041 -0.031241434
000380 31 a0 fa ba 15 b1 85 3d 07 bd 91 3c 85 19 d7 bd
       -0.0019121227 0.06527916 0.01779033 -0.10502914
000390 51 c5 ae 3c c6 6a b1 be 6f ec 8e bd 5b b3 b2 bc
       0.021334322 -0.34651774 -0.0697869 -0.021814039
0003a0 cc 77 82 3d e9 c6 b9 be 35 f8 65 bd 64 b1 cb bd
       0.06370506 -0.3628457 -0.05614491 -0.09945944
0003b0 d8 da 0e 3c aa 13 d5 3c f6 67 d2 3c 7c f9 e0 3b
       0.008719169 0.026010353 0.025684338 0.0068656784
0003c0 35 98 b7 bc fb b8 30 be b2 ce d9 bc be 9c 3d 3d
       -0.022411445 -0.17258064 -0.026587818 0.04629206
0003d0 fd fc 97 3d d0 9b 5a bd 1c e9 7b bd ec 7e 89 bc
       0.074213006 -0.05337125 -0.061501607 -0.016784154
0003e0 28 f8 18 bc d2 20 1d bd 35 66 e6 bc a4 9d a8 bd
       -0.009336509 -0.038361378 -0.028124908 -0.082331926
0003f0 06 5b ac bc f6 e7 36 ba 85 5a a2 3c 6d 58 33 3d
       -0.021039497 -0.0006977314 0.019818554 0.0437855

fc3.bias f4 [6]
000000 91 67 b2 3f 32 d9 b2 3f e2 00 b0 3f da 9a b0 3f
       1.3937856 1.3972533 1.375027 1.3797257
000010 a2 4f be 3f 62 54 b2 3f
       1.4868052 1.3932002
