agent_code/lisa_coin_agent_torch_small/dqn-model.pth (torch, 73756 bytes, 6 tensors)

fc1.weight f4 [128, 3]
00000000: fc2c 483d 3328 a3be 885f 93be d8c4 793e
00000010: 34e4 ddbe 8f7f b7be 9cbf 81bc 27f9 97bd
00000020: 47fe 30bd 4b9b c33e 4172 c3be 6cf4 c9be
00000030: 44e1 20be 7cd1 99bd 7d3f 2fbe 534f 803e
00000040: 1a95 713c f25d 4bbd 0116 b43e 42d6 45be
00000050: 7e13 973e 3805 b03e 4666 12bf e3a9 08bf
00000060: be0f a6ba c3a8 5cbe de13 e43e 08c8 3bbd
00000070: bcf8 c03a d1c4 2abf d8ee 793e e0bb 4b3e
00000080: bc29 0abf 5e92 c63e 8cd3 40be 02c1 a6be
00000090: a7b5 133f 8b0b 1abf adb8 f5be 4e66 06bf
000000a0: 6c7e 0b3f 68e7 c7be c666 d73d 56fc 7abd
000000b0: 8a1f dabd 4e95 e73d 0bfc 53be 2082 21be
000000c0: 4fe5 afbd c0c3 f1bc 5d29 6a3b cffa 7c3c
000000d0: f994 acbb b058 27bd 4222 e2bc 2527 e8bc
000000e0: 6c1d de3d 2b87 aa3e 1c8a 703e 5e5b b1be
000000f0: 62d0 debe 06ab 69bc 14bc ed3e 94ce fa3e
00000100: 1693 3f3e 240d 2bbe e271 e3bc 7a22 0ebf
00000110: 61e7 bdbe 2372 41be 04f1 9e3c 2c98 80be
00000120: 8959 ebbc 33ca 29be 6e14 d1bd 466e 16bc
00000130: 8a65 7a3d 65e0 06be c61e 803a 3665 ed3e
00000140: 36c3 18bf b577 113d fe76 0bbb f48b 0bbd
00000150: ae4c 8dbe 00ad 3dbe c236 93be 992b 20bd
00000160: 4d3a 65bd ea48 0cbd 3bb2 cebe 344b 6cbb
00000170: 9e7d b0be ab3e 663d 5edc c1bd 8a52 42be
00000180: 2189 fb3d ff28 9ebd 8d22 c3be 2d95 9e3e
00000190: f59a 04bf 6cfd 83be a2d4 3dbd fa87 373d
000001a0: 2c5e 10bf 33c7 a2bc 6948 ec3d bbb6 1bbe
000001b0: e486 c73e 5cdf 08bf c12c 12bf a16a e8bb
000001c0: b7ff b03e 3e24 83be 94d5 98be ea83 cdba
000001d0: eee9 9abe 6a20 82ba fbe6 323b 86b1 c03a
000001e0: 13ba 213e e98c 3e3d 68c4 66be 4bb3 a23e
000001f0: 5ee1 a53e 9dd4 96be a077 fd3d 20f4 423e
00000200: ba0e f4be 3401 adbe a82b d2be 3e5f 10bf
00000210: d5d1 cd3c 5d4e eebd 3ee3 033e a972 0fbc
00000220: 4522 aa3e 740b 02bf b01b 1b3e 1472 ea3d
00000230: 6b6a 82be ec87 1a3e 3fcb a8be 5b6e 963e
00000240: d577 6a3e 8119 80be def1 45be 7843 aa3d
00000250: 48c9 183e 683b dabe 61d8 cc3e 80e4 c5be
00000260: 91bc fabe 6aec a53e 9e06 023f 7b44 dabe
00000270: 9656 31bd ef80 44bb 7af6 3dbd 9bfe 563e
00000280: 19cf e43e f27f bcbe 13d1 ee3e e278 363e
00000290: 2ab7 f4be e527 3cbe 322e 87bd 2b81 073e
000002a0: b557 91bd bf34 ccbe 6b9d bc3c 6df8 a8be
000002b0: caa2 7f3e 14a9 87be 11ea 5bbd 7349 be3c
000002c0: 20d1 21bc 257d e7bc 2a22 143a c6c4 94bc
000002d0: d0cd 64bd c0c0 4b3c 626e b0be 4b67 133e
000002e0: ff6d cbbd 0b94 f9be 9478 aabd 8037 4dbd
000002f0: cccb d6be 15c0 ad3e bc23 95be c7ea 90be
00000300: a22d 22be b956 ed3d 6d37 05bf d832 b63e
00000310: 0c1d e43e f69d 05bf ccf9 21bc f81d f13e
00000320: b81f cbbd 3f93 993c 6c29 273c 4609 8339
00000330: 00c0 3cb9 0439 d4bd ab20 82be 1084 c83d
00000340: 8a17 4b3e 5e9a 2ebe 3998 1abd 6828 983c
00000350: 9f6c 91bd b3e8 72bb b20d b1bc 3d39 80bc
00000360: d218 c0be bc67 8dbc 4ab3 a5be 8e4b 193d
00000370: 6390 9c3d 36e0 0ebe ed85 003f 0031 7abe
00000380: dd01 d6be ab0a ed3b 85c9 0d3e cc20 47be
00000390: 9aca 9c3e 805c a8be 2c44 b6be 5cfc f7bd
000003a0: 90b2 6a3d cf84 99be 217b 403e 5f79 ef3e
000003b0: 22f4 b4be a7f4 e2bc e5f0 53bc 7e6e 0fbe
000003c0: b144 463b ad1a 843a 8876 8b3c ede1 51bd
000003d0: 1e31 cb3b 38bd d33d 66f8 1ebc 7892 553e
000003e0: c85e 34be 3c61 0ebf 68b4 00bf d07a d1be
000003f0: 63c2 a9be 856e 563e 6cc9 d8be 1c20 be3d
0.048871025 -0.31866607 -0.28783822 0.24391496 -0.43338168 -0.35839507 -0.015838437 -0.07420569
-0.043211248 0.38204417 -0.38173106 -0.39444292 -0.15710932 -0.07510659 -0.17114063 0.2506052
0.014745021 -0.04965014 0.35173038 -0.19320014 0.2950706 0.34378982 -0.57187307 -0.53384227
-0.0012669486 -0.21548752 0.44546407 -0.04584506 0.0014722566 -0.6670657 0.24407518 0.19895887
-0.5396993 0.38783544 -0.18830699 -0.32569128 0.57699054 -0.60173863 -0.4799246 -0.52499855
0.5448978 -0.39043736 0.10517649 -0.061275803 -0.10650547 0.113077745 -0.20701616 -0.15772295
-0.08588659 -0.029512286 0.003573022 0.015440657 -0.0052667824 -0.040856063 -0.027604226 -0.028338978
0.108454555 0.3330625 0.23490185 -0.3464002 -0.43518358 -0.014261967 0.46432555 0.48985732
0.18708453 -0.16704232 -0.027764264 -0.5552136 -0.3709059 -0.18891196 0.019402035 -0.25116098
-0.028729217 -0.16581039 -0.10208975 -0.009181565 0.06113199 -0.13171537 0.0009774796 0.4636628
-0.5967287 0.035514552 -0.0021280642 -0.034069017 -0.27597564 -0.18523026 -0.28752714 -0.039104078
-0.055963803 -0.034249224 -0.40370354 -0.0036055567 -0.34470838 0.05621211 -0.0946586 -0.18976799
0.12282015 -0.07722663 -0.38112298 0.30973187 -0.51798946 -0.25779283 -0.04634536 0.04480741
-0.56393695 -0.019870376 0.11537249 -0.15206425 0.389701 -0.5346582 -0.5709954 -0.0070927893
0.34570095 -0.25613588 -0.29850447 -0.0015679572 -0.302566 -0.0009927873 0.002729832 0.0014701344
0.15793638 0.0465211 -0.2253586 0.31777415 0.32398504 -0.29459086 0.12376332 0.19038439
-0.47667485 -0.3378998 -0.41048932 -0.5639533 0.02512447 -0.1163604 0.12879655 -0.008755364
0.3322927 -0.50798726 0.1514728 0.1144754 -0.25471815 0.15090913 -0.32967564 0.2938107
0.22897275 -0.25019458 -0.19330546 0.0831365 0.14920533 -0.42623448 0.40008834 -0.38650894
-0.4897199 0.32406932 0.5079135 -0.4263037 -0.043295465 -0.0029984077 -0.046377636 0.20995562
0.44689253 -0.36816365 0.46643886 0.1781955 -0.47795993 -0.18374594 -0.06600608 0.13232867
-0.07096807 -0.39883992 0.023024281 -0.33002034 0.24964443 -0.26496184 -0.05369002 0.023228383
-0.009876519 -0.028257916 0.0005650843 -0.018160235 -0.05586034 0.012436092 -0.34459215 0.14394872
-0.099330895 -0.4874576 -0.0832378 -0.050101757 -0.4195236 0.3393561 -0.29128826 -0.2830412
-0.1583772 0.11588807 -0.520377 0.35585666 0.4455341 -0.52194154 -0.009886216 0.47093177
-0.09918159 0.01874697 0.010202747 0.00024993176 -0.00018000603 -0.10362437 -0.2541555 0.09790814
0.19833198 -0.17051074 -0.037742827 0.018573955 -0.07100796 -0.003706497 -0.021612976 -0.015652293
-0.37518936 -0.017261378 -0.3236335 0.03742557 0.07644727 -0.13952717 0.50204355 -0.24432755
-0.41798297 0.0072339377 0.13846405 -0.19446105 0.30623323 -0.32883072 -0.35598886 -0.121086806
0.057299197 -0.29984137 0.1879697 0.46772286 -0.3534251 -0.02770455 -0.012935852 -0.14006993
0.0030253346 0.0010078751 0.017024294 -0.05124085 0.0062009236 0.10338825 -0.0097027775 0.20856655
-0.17614281 -0.5561712 -0.5027528 -0.4091401 -0.33156118 0.20940597 -0.42341173 0.09283468

fc1.bias f4 [128]
00000000: cf1f 63be c7e2 00bf 3e6b 69be f9a8 d1bd
00000010: 4822 17be b3a1 063d 97c1 e3be 470f 87be
00000020: af0d 46bf e8c1 043f 804c 3cbd eebf d4be
00000030: 4390 233e 02f8 a93d 5565 7bbd 0511 03bf
00000040: 9ac3 47bf 6ac2 d8b9 cfd7 f7be 7e61 68b9
00000050: dbbe f2be 3472 903e 88cc 6e3e 76b0 c7ba
00000060: 81cf 2dbf 8672 3a3f b094 71bc 53ac 8ebc
00000070: 2577 b4ba 0354 87be f0bf ddbe 4152 2a3f
00000080: 70ed ff3d 04c3 023e 9798 a23e b456 1dbb
00000090: a0a2 62bd 6a35 17bf 9740 b6bb 1fce e1be
000000a0: 70ab 31ba 6faf 04bf b367 8ebe e067 85be
000000b0: afd7 58be e083 1db8 4ed2 c3bb 3cbe 13bf
000000c0: f8df 1cbf 5288 25be 6b51 c3ba 1f59 10bf
000000d0: 78e3 f9bd 4a69 febe 2f20 9fbe 88c2 f0be
000000e0: 1261 f0be 37b2 27bf 3438 f6be a076 8cbd
000000f0: 5d88 9abe 3c70 483e aa3f 13be 5ef9 5bbf
00000100: c6ac 443e f650 3abe 0c21 ce3e 4695 05bf
00000110: 5e45 43be d0eb 36be 112f 4fbb 957e c2be
00000120: 0d0d d1be cf91 0abb e46e 14bf b79c f2ba
00000130: 9681 a6be 707f 9fbd 28eb 133e 8aba 1db9
00000140: a2e7 1abf f62c 1bbf d868 67be 86e2 743e
00000150: a538 4aba 2a70 933d 377c 92bd 4f89 99be
00000160: 1a2e 6dbe 8d1a 16bf 432b e93e 0118 03be
00000170: 1ff0 06be e2f1 ecbb a447 bcbe e002 48bf
00000180: 0eaa 61be e98b 03be fe3f e4bc cc56 ea3e
00000190: 0ea3 dbb7 21c7 e1b8 1257 c3be 30e8 ff3c
000001a0: e823 8bbd d611 9ebd 7798 afbe 03b5 943e
000001b0: 36da 84ba 5066 09bf a573 f73d 39ce a2bd
000001c0: a143 4ebc 099f 6bbd bcf5 f93e 023d 05bf
000001d0: e389 f9be b1fc 33bf a0a4 1bbf 0063 91ba
000001e0: 0cf2 9cbc e94a 7aba 646d b53c 4008 b53e
000001f0: 34a0 30bc 863c 2fbf af7a 48ba de6b 51bf
-0.22180103 -0.50346035 -0.22794816 -0.10237307 -0.14759171 0.032869052 -0.44483635 -0.26378843
-0.7736463 0.5185838 -0.045971394 -0.4155268 0.15973 0.08299257 -0.061375935 -0.51197845
-0.7803284 -0.0004134358 -0.48406836 -0.00022161563 -0.47411236 0.2821213 0.2332021 -0.0015235085
-0.6789475 0.72831 -0.0147449225 -0.017416155 -0.0013768418 -0.26431283 -0.433105 0.6653176
0.124964595 0.12769705 0.31757042 -0.0024007978 -0.055330873 -0.5906588 -0.005561899 -0.4410257
-0.00067775603 -0.5183019 -0.2781349 -0.26055813 -0.21176027 -3.7554535e-05 -0.005975998 -0.5771215
-0.6127925 -0.16165283 -0.0014901584 -0.5638599 -0.12201589 -0.49689704 -0.31079242 -0.47023416
-0.4694906 -0.6550631 -0.48089755 -0.068585634 -0.30182162 0.19574064 -0.14379755 -0.8592738
0.19206533 -0.18194947 0.40259588 -0.521809 -0.1906943 -0.17863393 -0.0031613747 -0.379872
-0.4083027 -0.0021144038 -0.57981706 -0.001850984 -0.3252074 -0.07787979 0.14445174 -0.00015042178
-0.60509694 -0.6061548 -0.22598588 0.23914537 -0.0007714129 0.07199128 -0.07152598 -0.2998757
-0.23162118 -0.58634263 0.4554082 -0.12802126 -0.13177536 -0.007230983 -0.36773407 -0.78129387
-0.22037527 -0.1284634 -0.027862545 0.45769346 -2.6182763e-05 -0.00010765927 -0.38152367 0.031238645
-0.06793958 -0.07718246 -0.3429601 0.2904435 -0.0010135833 -0.5367174 0.12082604 -0.0794949
-0.012589366 -0.057524715 0.48820293 -0.52046216 -0.48738012 -0.7030745 -0.6079807 -0.0011092126
-0.019158386 -0.00095479056 0.022146888 0.35357857 -0.010780383 -0.68451726 -0.0007647676 -0.8180522

fc2.weight f4 [128, 128]
00000000: 20fe 8abd 7ebe 05bd a79e 1c3c 2817 27bd
00000010: e2e5 80bd 9cff 06be caff 9ebd 31bc aabd
00000020: 56c8 0dbe 1a42 89bd 4889 ab3c e937 66bd
00000030: c6a3 8cbc 1592 abbd ff16 39bc 617b 423b
00000040: 1000 8bbd 4f66 b03c aa7c a9bd fdc5 2cbe
00000050: 616d c4bd 2e93 12be 0154 12bd c099 2abd
00000060: 5e04 b8bc 2c54 32bd a57e 30be 6e97 ecbc
00000070: af1e 06be 2129 94bd 6913 9abd e388 663b
00000080: ca5f b7bd 60fa 473b 1f15 343e 9cb5 06bc
00000090: d05b 09bc 84ad 22bd c851 cabd ed6d 093d
000000a0: bb96 89bd a307 153d a74e b3bd 147d e1bc
000000b0: 3bd7 6dbc 1d76 d9bd fc80 06bd 7d18 c7bd
000000c0: c473 76bd 8900 8ebd 4a72 5fbd 0202 f1bc
000000d0: d74c 033c 456e 9e3d af11 a2bc 5082 7fbd
000000e0: b27a cabd f2ce 64bd e699 9cbd 536d 5f3d
000000f0: c0c6 58bb 013e 5fbd f6dd 523d ad2d 12bd
00000100: bfec 013e 9164 85bd 1e79 1bbb 78f5 debd
00000110: 787e cebc 4d5b 8c3d 0842 d6bb d1d5 9abd
00000120: 285f bbbd 9658 203d 28f8 a33c 6552 4b3d
00000130: 28ab dfbd d836 87bc 261b 2cbd 6967 aabd
00000140: 995d dcbd 9ac5 7abd 4214 3abd 66d4 66bd
00000150: e8a8 68bc 4106 35bd 1c0a abbb 2528 c6bd
00000160: 4f7a a5bd 3ae2 11bd d6bb ef3c d756 893a
00000170: 31a6 92bb e3af c4bc cd3f a2bd 45a0 3dbd
00000180: 32b1 ecbd 5f50 8cbd f56e 513d ed17 ae3d
00000190: 9746 7abd 4226 483d ed10 1bbd e3ce a7bd
000001a0: 4095 67bd 64cf cb3c 89e4 11ba 4488 7bbd
000001b0: fa44 e3bd 9ebc 513d 31d5 88bd b9ac 19bc
000001c0: fca8 9abd ff8b eebb e29b 21bd c55b babd
000001d0: fe6d 99bd c141 323d c47c 1d3d 1888 9a3d
000001e0: b528 40bd 295b 8dbd 70c0 ddbd 21a5 103d
000001f0: b799 3b3b 7972 bc3c b659 81bd 68dc 5a3b
00000200: 1598 20bd 4496 61bd 49a5 94bc 9be5 893d
00000210: eabe 12be 4de4 2ebc 2585 cebd 1355 debd
00000220: ead7 ebbb 306c 2fbd ad17 8b3d 6665 7c3d
00000230: 701e 863d 2df2 afbd 3825 b23d c5c3 95bd
00000240: df40 00be b848 7ebd 6aab f0bd 159b c4bd
00000250: a0bf 843a 4dce 37bd 972d 733c 1283 38bd
00000260: fb7a 18be 4eb1 d0bd bce3 e5bd a61b 603d
00000270: 7d90 94bd 6259 c7bd 890e 0cbd ef1c a4bd
00000280: 68ab a5bd ea6b 45bc 545f 0dbd d317 87bd
00000290: 3094 2bbc c03b bc3c cd65 a23c e0e9 acbd
000002a0: c58e 123d e768 6abd 06ab 6e3d 98c2 1cbc
000002b0: 1913 54bd b5fb 74bd a81c 97bc f0cc e13c
000002c0: 0ed6 6d3d d35c 4bbd bb02 923d 4cf8 e53c
000002d0: d861 b7bd 618b 143d d0f9 eb3c 252f 45bd
000002e0: 7078 31bd 2a50 22bd 0bfb 893d 9db6 51bd
000002f0: ebc0 90bd 3304 b03c 5cbe 6dbd cc51 07be
00000300: ca5d 70bd b9ef a5bd 387e 443b 7ab3 6a3d
00000310: f572 51bd 86e9 713d d908 b0bc 24dd 3ebd
00000320: ba64 0d3c d646 5b3d 062b 6f3d 22ac c0bd
00000330: 8f0e a7bd aca1 c0bc ea82 e03c 2ab0 0a3d
00000340: 3584 043c 3bb8 bcbd 5fb0 5d3d ddfb 933c
00000350: 9d86 fbbd 43c6 083c 4f48 07be 8a57 99bd
00000360: 439a 8a3d 6749 03bd 576c ddbd fcad 9c3c
00000370: e265 96bd 130f 04bd 07ee 76bd 9719 ccbd
00000380: b303 fdbd b8bb bfbd 2c28 debd 50c3 50bd
00000390: 4d62 393d a8bf a3bd 2456 2b3a 281d 44bb
000003a0: 6d04 a2bd a7ad 19bd a1d8 4fbb 473c 28bd
000003b0: 6cab 2cbd 2aa9 433d 4103 19be 04d1 12bd
000003c0: 1029 2f3d b4fa 0cbd 5e79 b0bd eb1d a33c
000003d0: b1b2 ba3c e130 a2bd 5f3f d3bd f632 3cbd
000003e0: 6098 98bb 5079 0ebd 426e cbbc 2b38 f43c
000003f0: 6ee5 983d d130 9fbc c96c c6bd 95b6 adbd
-0.06786752 -0.03265237 0.00955931 -0.040793568 -0.06293847 -0.13183445 -0.07763632 -0.08336676
-0.13845953 -0.06702061 0.020939484 -0.056205664 -0.017167937 -0.08377472 -0.011296987 0.002967559
-0.06787121 0.02153316 -0.08275731 -0.16872402 -0.09591175 -0.14313957 -0.035724644 -0.041650534
-0.02246302 -0.043537304 -0.17235811 -0.028880801 -0.13097642 -0.07234407 -0.075232334 0.0035176806
-0.08953817 0.0030514225 0.17586182 -0.00822201 -0.008383706 -0.03971626 -0.0987888 0.0335521
-0.06718203 0.036384236 -0.08755236 -0.027525462 -0.014516647 -0.106182314 -0.032837853 -0.09721468
-0.060168996 -0.06933696 -0.054552354 -0.029419903 0.0080139255 0.07735876 -0.019783823 -0.062380135
-0.098866835 -0.05586142 -0.07646541 0.05454762 -0.0033077449 -0.05450249 0.05148121 -0.03568809
0.12687968 -0.06513322 -0.0023723315 -0.10886663 -0.02520679 0.06853352 -0.0065386333 -0.075603135
-0.09149009 0.039146982 0.020015791 0.049639124 -0.10921317 -0.016505644 -0.04201808 -0.08320505
-0.1076004 -0.061223604 -0.045429476 -0.056354903 -0.014200427 -0.044195417 -0.005219711 -0.09675626
-0.08079969 -0.035616137 0.029264372 0.0010478151 -0.004475378 -0.02400965 -0.07922325 -0.046295423
-0.11557235 -0.06851267 0.051131207 0.08500657 -0.061102476 0.04886461 -0.03785794 -0.081937574
-0.05653882 0.024879165 -0.00055653654 -0.06140925 -0.110971406 0.05120527 -0.06681288 -0.009379559
-0.075517625 -0.0072798724 -0.039455302 -0.09099535 -0.074916825 0.04351974 0.038449064 0.07545489
-0.04691382 -0.06902153 -0.1082772 0.03531373 0.0028625557 0.023003804 -0.06315939 0.0033395533
-0.039207537 -0.055074945 -0.01814522 0.06733247 -0.1433064 -0.010674548 -0.10083989 -0.1085607
-0.00719737 -0.042827785 0.06791625 0.06162014 0.06548774 -0.08591113 0.08698505 -0.07312731
-0.12524746 -0.06208107 -0.11751445 -0.09599892 0.001012791 -0.044874478 0.014842412 -0.045046873
-0.14890663 -0.10190068 -0.112250775 0.054713868 -0.072541215 -0.09733845 -0.03419355 -0.08013331
-0.08089334 -0.0120496545 -0.03451474 -0.06596341 -0.010472342 0.02297771 0.019823933 -0.084430456
0.035780687 -0.05722895 0.05826857 -0.009567879 -0.051776025 -0.05981036 -0.018446282 0.027563542
0.058065467 -0.04964907 0.07129427 0.028072499 -0.08954209 0.036265735 0.028805643 -0.048140664
-0.04332775 -0.03962723 0.06737336 -0.051199544 -0.07068046 0.021486377 -0.05804287 -0.13214797
-0.058683194 -0.08102364 0.0029982459 0.05730007 -0.051135022 0.059060596 -0.021488594 -0.046597615
0.008629972 0.05353435 0.05839064 -0.09407832 -0.08157074 -0.023514591 0.027406175 0.03385941
0.008088161 -0.09214827 0.05412328 0.018064434 -0.12281535 0.0083480505 -0.13211177 -0.074874
0.06767704 -0.032052424 -0.1081168 0.019125931 -0.07343651 -0.03224094 -0.060285594 -0.099658184
-0.12354221 -0.093619764 -0.10847506 -0.050967515 0.045259763 -0.0799554 0.0006535968 -0.0029924605
-0.079110004 -0.037519123 -0.0031714814 -0.04107311 -0.04215567 0.04776875 -0.14942648 -0.035843864
0.04276377 -0.034418777 -0.08616899 0.019911727 0.022790285 -0.07919479 -0.103148215 -0.045947038
-0.0046568364 -0.03478366 -0.024832848 0.02981194 0.07465635 -0.019432457 -0.09688718 -0.084820904

fc2.bias f4 [128]
00000000: ea4e 7dbd a690 613c a5d9 bb3a e218 073e
00000010: a282 a0bd 53f0 fbbc 9798 d9bd 027a bb3b
00000020: 1609 29bd bb64 73bd 009d b7bd 05ba dbbd
00000030: d451 1d3d 896e 18be b31e fcbd 8e50 b7bd
00000040: 9ee1 da3c 5a51 dbbd 45f6 56bd 38e7 65bd
00000050: c021 f83e 1b0b 413c 4707 c7bd 7280 a5bd
00000060: 38f2 dcbd 568a 263f 0374 6ebd 374e 0cbc
00000070: 4bd9 00bd 2452 16be 4e26 73bc 1515 88bd
00000080: 773b e33e 296b f6bd d5be a5bd 2751 dcbd
00000090: c3b9 213d 2a5d 35bd eb9b 693d 818d 1d3d
000000a0: 47d3 adbd 1d02 e4bc 1880 3a3e fa78 e53c
000000b0: 46d8 d9bd c680 05bd 05c6 70bc 6651 13bb
000000c0: 0b4d 863a 59dd 85bd cfba 3c3c 0495 a6bd
000000d0: ad96 2cbd fb1e d4bb 95a8 f0bd a3ec 54bd
000000e0: 1eeb 2cbd bc4d 6abd cfd0 03be 6643 cabc
000000f0: df38 403c ef5f 19be e17c d8bd 4308 c5bd
00000100: b687 5b3d d9f8 b8bd f2ce 7abd 3b96 d1bd
00000110: ab5b f0bc 6ee7 c2bd e427 08bd 9247 c6bd
00000120: d3bd 40bd 14a7 cc3d 104e dbbb 94a8 eebb
00000130: 8af5 c5bd 4caf c3bd 3528 023d 3570 65bd
00000140: ff1e 53bd d3a7 2cbd f34f 78bb c498 e9bd
00000150: 3c7b 333c c5c2 f4bd 17e5 1fbe 7cf8 43bd
00000160: ba52 d53b 7669 69bd 1efe 84bd 98f3 a73c
00000170: b55f e9bd 1970 c8bd 24ba 53bc 377e 92bc
00000180: dbfa d03e 3191 8fbc c9c6 47bd 8e5f d7bd
00000190: 8c10 a5bb 95f2 d0bd 9443 0dbd 3569 bfbd
000001a0: 6630 e93e 53c2 20bd 4af4 8cbd 97b7 c13c
000001b0: 3a3f cfbd 7eab c1bd 8c5e 3cbd c321 c8bd
000001c0: 0ed5 88bc 15eb 29bd cba8 5ebc b5da 0abd
000001d0: 33a1 75bd 8746 5ebd 29c3 e7bd 4459 c2bd
000001e0: 2a8f 99bd c846 38bd 9c6f f9bc 628c 06bd
000001f0: bf17 cbbc 4cdf 30be 2abd 30be 70d5 d1bd
-0.061842836 0.013767397 0.0014331831 0.13193086 -0.07837416 -0.030754244 -0.10624807 0.0057213316
-0.04126843 -0.059422236 -0.08965492 -0.1072884 0.038408116 -0.14885916 -0.12310543 -0.089509115
0.02671891 -0.10708876 -0.052480955 -0.05612871 0.4846325 0.011782433 -0.09718185 -0.080811396
-0.10788387 0.65054834 -0.058216106 -0.00856357 -0.031457227 -0.14679772 -0.0148406755 -0.06644646
0.44381306 -0.12032158 -0.08093039 -0.10757666 0.039483797 -0.0442783 0.05703346 0.038465027
-0.084875636 -0.027833039 0.18212926 0.028011788 -0.10636954 -0.03259351 -0.014695649 -0.0022478937
0.0010246349 -0.06536359 0.011519148 -0.08133891 -0.042135883 -0.0064734197 -0.117509045 -0.051983487
-0.042216413 -0.05720304 -0.12872623 -0.024690341 0.011732309 -0.14978002 -0.10570694 -0.096207164
0.05359622 -0.09031839 -0.061232515 -0.10233732 -0.029340586 -0.09516798 -0.033241168 -0.0968162
-0.04705603 0.09992805 -0.0066926554 -0.0072832797 -0.096659735 -0.095549196 0.031776626 -0.056015212
-0.051543232 -0.042152237 -0.003788945 -0.11406091 0.010954674 -0.11951212 -0.15614735 -0.047844395
0.006510106 -0.05698534 -0.064937815 0.020501897 -0.11395208 -0.09787006 -0.012922797 -0.01788245
0.40816388 -0.017525287 -0.04877356 -0.105162725 -0.005037373 -0.10202519 -0.034488276 -0.093462385
0.45544738 -0.039247822 -0.06882532 0.023647113 -0.101194814 -0.09456538 -0.045988604 -0.097720645
-0.016703155 -0.041483957 -0.013590048 -0.03389998 -0.059968185 -0.05426648 -0.11316521 -0.09489682
-0.074980095 -0.044989377 -0.030448727 -0.032848723 -0.024791596 -0.17272681 -0.1725966 -0.10245788

fc3.weight f4 [6, 128]
00000000: ed6c 10bb e4d4 68bd 0509 693a c5ab 4a3d
00000010: dc61 7ebe f774 59bd ca49 cabc d1a1 3d3a
00000020: 8819 913c 7d90 823c 8b99 34bd db0a 6fbc
00000030: fb9d a0bc f1e6 48be d4f8 6abe c204 e03d
00000040: b1ba bb3b 5640 8c3d 511d 9abc 4754 f6bc
00000050: c231 6b3e b5f3 46bd 043b 213d 0a52 95bd
00000060: 405f ddbc 1e81 6f3e 45c4 363b 6b13 02bc
00000070: 47cc 563c 4607 f93c 0272 1d3d a48d 923d
00000080: 5fc6 c23d 7937 443c 7b05 173c a5bb 8cbd
00000090: e686 69bc 66c1 2b3a 71e0 63bc cbf7 79bb
000000a0: 8769 233d 1ae7 553d 0058 fbbe 5804 133c
000000b0: 4223 6a3d 50d5 c03c 722d c63c d605 233d
000000c0: 315d a13d b869 93bd 52bd ad3c b0d5 51bc
000000d0: aff5 2c3b 60a0 4bbc 2fd8 57bd 4825 203d
000000e0: cc9e cabc f1b7 65bd 94d3 d23c 7823 193c
000000f0: 0038 49bb 1b18 89ba 9a11 113d 7f90 4cbc
00000100: 2d7e 35bd 83f5 22bc f786 2f3c 366f e33c
00000110: 9cee b73e 2e54 b23c 5a02 5ebd ce08 6a3d
00000120: 1c31 e03c f3b1 0ebe 3ae4 143b 1a11 59bd
00000130: 8b7e 14bd f4e5 40bd 8ca6 bbbc 0633 673c
00000140: 2128 a6ba 9025 2dbd b1bc 073d 2e5f e53c
00000150: 92ae 2d3d 1033 bb3c ac17 fabd c19d c5bd
00000160: e63b 083d f6ae 8f3d 16f3 e43c 27f5 94ba
00000170: cf67 6abd 2388 d6bb a593 d5ba 8487 62bc
00000180: d760 583e 05ce fd3c 8254 adbd 4ce7 653d
00000190: a8ab d7bc ba2b 02bd fbaf 6b3d 826c 3a3d
000001a0: 987b 9dbd 4d00 313d f8f0 503d 28d2 5cba
000001b0: b72b 7bbb a778 bebc 0fa5 943b d2e7 4cbd
000001c0: 06a5 3bbc 0523 c6bc eb42 e2ba be76 a0bc
000001d0: 4e7b f0ba 7cd5 1e3c 5f03 49bd e484 0d3d
000001e0: f046 833c 107a f6bc 7e70 bdbd b13f 593d
000001f0: c95a 64bc b0db e7bd 5f30 b43c b16c 62bd
00000200: 272e bbbb d468 aa39 c2ca ce3c 54fe 03bf
00000210: 9852 e53b bfee 1fbc 2d67 173d 2ac5 873c
00000220: a04a 53bb 9fd5 4c3d 9a7f 81bd 993a 94bd
00000230: 977c e4bc ef86 afbd cd89 8fbe 0fc1 70bc
00000240: 58f5 e73c 7e08 cabb fb4d 153b 6a28 8bbd
00000250: d5fd 00bd 2429 ccbc ac12 853c 3e83 983c
00000260: 2de4 0b3c 8077 803e c44b 62bd 55ec dc3b
00000270: ada5 40bc 3784 94ba 95ec 68bd ff52 5d3d
00000280: 3b64 a43d 871c 58bc e4dc 4fbd a92b 213a
00000290: be52 743d 2c9b 4c3d 51fb fa3c 058f 363d
000002a0: bf8a 8abc 3716 d1bd e8fc e93d 296b 1ebc
000002b0: 55a6 a03d bee1 8cbd 317f 04be 849e 5f3d
000002c0: 91b9 3abd 835a 9e3c c33c eebd 57fe 2e3d
000002d0: a97d 4cbc 3be1 3d3d 686b c0bc 3cbc 7abc
000002e0: 300c 5c3c 9145 cd3c dc52 eabc f16c 6bbd
000002f0: bf1c aeba f31e da3c 2e98 213d 9d0a 7fbd
00000300: 177f 12be 7f35 6a3d 36c7 003c f18c 8ebc
00000310: 2d4b 12bf 2c22 b5be 4b66 77bc 3f4a 1dbd
00000320: bc91 8dbe 2644 313d 325e 4e3d 91e9 123d
00000330: 68f9 33bb 729a cbbd f32f 233c 7c84 9a3d
00000340: 6a3c 87bc 523d 5b3d 334e bfbb b656 3bbb
00000350: cfbf 2ebd 03be 2d3d 9771 78bd 4269 7d3d
00000360: f74e 57bd 80a1 373b a36c 6fbc 8e04 a53c
00000370: eba4 803c 28cc 413c 16f9 4abd 00b0 d038
00000380: 3f1c 473e 4373 98bc 9192 b83c f01d 67bd
00000390: a206 99bd dd71 acbc 76b9 a03a 9d93 603d
000003a0: 2e34 493e 46ec 963c 8018 d43c 26e4 8fbb
000003b0: 57df 8d3c c040 23bc cd45 bd3d 8068 df3c
000003c0: 99ce 47bc c2d0 b9bd 9c9b 5dbd a2d6 4e3d
000003d0: 75be 3cbc 8fee 3abd afeb febc 7a3a c13c
000003e0: 8113 aabc e189 d63c 0a04 233c 6479 da3c
000003f0: 2330 b6bc d859 d4be 7d61 ce3b 7c1c bd3d
-0.002203758 -0.056843653 0.00088895886 0.04948022 -0.24842018 -0.053090062 -0.024693388 0.00072338904
0.01771237 0.015938038 -0.044091742 -0.0145899905 -0.019606581 -0.19619347 -0.22946483 0.109384075
0.0057290425 0.068482086 -0.018812807 -0.030069483 0.229682 -0.04857226 0.039362922 -0.07291038
-0.027022958 0.23389098 0.0027887982 -0.0079392 0.013110227 0.030398976 0.038438804 0.07155922
0.095104925 0.011976116 0.009217615 -0.06871728 -0.014253354 0.0006551951 -0.0139084915 -0.003814208
0.03989556 0.05222235 -0.49090576 0.008973204 0.05716253 0.023539215 0.024191592 0.039800487
0.07879103 -0.071978986 0.021208439 -0.012807295 0.0026391556 -0.012428373 -0.052696403 0.039098054
-0.024733923 -0.056083623 0.025735654 0.009346835 -0.0030703545 -0.0010459454 0.035417177 -0.012485622
-0.044309784 -0.00994623 0.0107133305 0.02776299 0.35924232 0.021768656 -0.05420146 0.057137303
0.027367167 -0.1393507 0.0022719041 -0.052994825 -0.036253493 -0.0470943 -0.022906564 0.014111286
-0.0012676754 -0.04227215 0.033138935 0.027999487 0.04240281 0.022851497 -0.12211546 -0.0964923
0.03326025 0.07015793 0.027947944 -0.0011364565 -0.057227906 -0.0065469905 -0.0016294612 -0.013826255
0.21130691 0.030982027 -0.08463384 0.056128785 -0.02632697 -0.031779982 0.057540875 0.045513637
-0.07689589 0.043213177 0.051011056 -0.00084236497 -0.0038325617 -0.02325089 0.004536278 -0.05002577
-0.011452919 -0.02418662 -0.0017262375 -0.01958787 -0.0018347295 0.009694453 -0.04907548 0.034550563
0.016025037 -0.0300875 -0.09249972 0.053039256 -0.0139376605 -0.11321199 0.021995721 -0.055279437
-0.005712289 0.0003250303 0.025243167 -0.5155995 0.0069983713 -0.009761511 0.03696363 0.016573507
-0.0032240525 0.050008412 -0.06323166 -0.07237739 -0.02789144 -0.085706584 -0.2803482 -0.014694466
0.028315231 -0.006165563 0.0022782076 -0.06794818 -0.031492073 -0.024921961 0.016244255 0.018617269
0.008538288 0.2509117 -0.055248037 0.00674204 -0.01175825 -0.0011330907 -0.056866247 0.05403423
0.0802693 -0.013190395 -0.050747767 0.00061481685 0.05964922 0.04995267 0.030637415 0.044569988
-0.016911862 -0.10209315 0.11425191 -0.009669104 0.07844225 -0.068789944 -0.12939145 0.05459453
-0.045587126 0.019330269 -0.11632683 0.042723026 -0.012481132 0.046357375 -0.023488715 -0.015303668
0.01343064 0.025057586 -0.028603964 -0.05747694 -0.0013283713 0.026626086 0.03945177 -0.06226598
-0.14306293 0.057179924 0.007859996 -0.01740119 -0.5714596 -0.35377634 -0.015100072 -0.038400885
-0.2765025 0.043277882 0.0503828 0.035867278 -0.002746189 -0.099415675 0.009960162 0.07544801
-0.0165083 0.053525276 -0.0058381795 -0.002858562 -0.04266339 0.042417537 -0.060655203 0.06186796
-0.05256554 0.0028019845 -0.014613303 0.020143773 0.015703639 0.01182846 -0.049553953 9.9509954e-05
0.19444369 -0.018609649 0.022530826 -0.056425035 -0.07471968 -0.021050388 0.0012262303 0.054828275
0.19648811 0.01842321 0.025890589 -0.004391211 0.01731841 -0.009964168 0.09241829 0.02727151
-0.012195253 -0.090730205 -0.05410348 0.05049766 -0.011520018 -0.045637663 -0.031118242 0.023587454
-0.020761253 0.026188793 0.009949693 0.026669212 -0.02223975 -0.41474795 0.0062982426 0.092339486

fc3.bias f4 [6]
00000000: 0e76 4e3f 4615 503f 95cd 493f 7e7b 4e3f
00000010: 8b93 323f aa0a 203f
0.8064889 0.8128246 0.7882932 0.80657184 0.6975638 0.6251627
